node {
  name: "global_step/initial_value"
  op: "Const"
  attr {
    key: "_output_shapes"
    value {
      list {
        shape {
        }
      }
    }
  }
  attr {
    key: "dtype"
    value {
      type: DT_INT32
    }
  }
  attr {
    key: "value"
    value {
      tensor {
        dtype: DT_INT32
        tensor_shape {
        }
        int_val: 0
      }
    }
  }
}
node {
  name: "global_step"
  op: "VariableV2"
  attr {
    key: "_output_shapes"
    value {
      list {
        shape {
        }
      }
    }
  }
  attr {
    key: "container"
    value {
      s: ""
    }
  }
  attr {
    key: "dtype"
    value {
      type: DT_INT32
    }
  }
  attr {
    key: "shape"
    value {
      shape {
      }
    }
  }
  attr {
    key: "shared_name"
    value {
      s: ""
    }
  }
}
node {
  name: "global_step/Assign"
  op: "Assign"
  input: "global_step"
  input: "global_step/initial_value"
  attr {
    key: "T"
    value {
      type: DT_INT32
    }
  }
  attr {
    key: "_class"
    value {
      list {
        s: "loc:@global_step"
      }
    }
  }
  attr {
    key: "_output_shapes"
    value {
      list {
        shape {
        }
      }
    }
  }
  attr {
    key: "use_locking"
    value {
      b: true
    }
  }
  attr {
    key: "validate_shape"
    value {
      b: true
    }
  }
}
node {
  name: "global_step/read"
  op: "Identity"
  input: "global_step"
  attr {
    key: "T"
    value {
      type: DT_INT32
    }
  }
  attr {
    key: "_class"
    value {
      list {
        s: "loc:@global_step"
      }
    }
  }
  attr {
    key: "_output_shapes"
    value {
      list {
        shape {
        }
      }
    }
  }
}
node {
  name: "mul/y"
  op: "Const"
  attr {
    key: "_output_shapes"
    value {
      list {
        shape {
        }
      }
    }
  }
  attr {
    key: "dtype"
    value {
      type: DT_INT32
    }
  }
  attr {
    key: "value"
    value {
      tensor {
        dtype: DT_INT32
        tensor_shape {
        }
        int_val: 256
      }
    }
  }
}
node {
  name: "mul"
  op: "Mul"
  input: "global_step/read"
  input: "mul/y"
  attr {
    key: "T"
    value {
      type: DT_INT32
    }
  }
  attr {
    key: "_output_shapes"
    value {
      list {
        shape {
        }
      }
    }
  }
}
node {
  name: "mul_1/y"
  op: "Const"
  attr {
    key: "_output_shapes"
    value {
      list {
        shape {
        }
      }
    }
  }
  attr {
    key: "dtype"
    value {
      type: DT_INT32
    }
  }
  attr {
    key: "value"
    value {
      tensor {
        dtype: DT_INT32
        tensor_shape {
        }
        int_val: 1
      }
    }
  }
}
node {
  name: "mul_1"
  op: "Mul"
  input: "mul"
  input: "mul_1/y"
  attr {
    key: "T"
    value {
      type: DT_INT32
    }
  }
  attr {
    key: "_output_shapes"
    value {
      list {
        shape {
        }
      }
    }
  }
}
node {
  name: "ExponentialDecay/learning_rate"
  op: "Const"
  attr {
    key: "_output_shapes"
    value {
      list {
        shape {
        }
      }
    }
  }
  attr {
    key: "dtype"
    value {
      type: DT_FLOAT
    }
  }
  attr {
    key: "value"
    value {
      tensor {
        dtype: DT_FLOAT
        tensor_shape {
        }
        float_val: 0.00999999977648
      }
    }
  }
}
node {
  name: "ExponentialDecay/Cast"
  op: "Cast"
  input: "mul_1"
  attr {
    key: "DstT"
    value {
      type: DT_FLOAT
    }
  }
  attr {
    key: "SrcT"
    value {
      type: DT_INT32
    }
  }
  attr {
    key: "_output_shapes"
    value {
      list {
        shape {
        }
      }
    }
  }
}
node {
  name: "ExponentialDecay/Cast_1/x"
  op: "Const"
  attr {
    key: "_output_shapes"
    value {
      list {
        shape {
        }
      }
    }
  }
  attr {
    key: "dtype"
    value {
      type: DT_FLOAT
    }
  }
  attr {
    key: "value"
    value {
      tensor {
        dtype: DT_FLOAT
        tensor_shape {
        }
        float_val: 4000000.0
      }
    }
  }
}
node {
  name: "ExponentialDecay/Cast_2/x"
  op: "Const"
  attr {
    key: "_output_shapes"
    value {
      list {
        shape {
        }
      }
    }
  }
  attr {
    key: "dtype"
    value {
      type: DT_FLOAT
    }
  }
  attr {
    key: "value"
    value {
      tensor {
        dtype: DT_FLOAT
        tensor_shape {
        }
        float_val: 0.949999988079
      }
    }
  }
}
node {
  name: "ExponentialDecay/truediv"
  op: "RealDiv"
  input: "ExponentialDecay/Cast"
  input: "ExponentialDecay/Cast_1/x"
  attr {
    key: "T"
    value {
      type: DT_FLOAT
    }
  }
  attr {
    key: "_output_shapes"
    value {
      list {
        shape {
        }
      }
    }
  }
}
node {
  name: "ExponentialDecay/Floor"
  op: "Floor"
  input: "ExponentialDecay/truediv"
  attr {
    key: "T"
    value {
      type: DT_FLOAT
    }
  }
  attr {
    key: "_output_shapes"
    value {
      list {
        shape {
        }
      }
    }
  }
}
node {
  name: "ExponentialDecay/Pow"
  op: "Pow"
  input: "ExponentialDecay/Cast_2/x"
  input: "ExponentialDecay/Floor"
  attr {
    key: "T"
    value {
      type: DT_FLOAT
    }
  }
  attr {
    key: "_output_shapes"
    value {
      list {
        shape {
        }
      }
    }
  }
}
node {
  name: "ExponentialDecay"
  op: "Mul"
  input: "ExponentialDecay/learning_rate"
  input: "ExponentialDecay/Pow"
  attr {
    key: "T"
    value {
      type: DT_FLOAT
    }
  }
  attr {
    key: "_output_shapes"
    value {
      list {
        shape {
        }
      }
    }
  }
}
node {
  name: "learning_rate/tags"
  op: "Const"
  attr {
    key: "_output_shapes"
    value {
      list {
        shape {
        }
      }
    }
  }
  attr {
    key: "dtype"
    value {
      type: DT_STRING
    }
  }
  attr {
    key: "value"
    value {
      tensor {
        dtype: DT_STRING
        tensor_shape {
        }
        string_val: "learning_rate"
      }
    }
  }
}
node {
  name: "learning_rate"
  op: "ScalarSummary"
  input: "learning_rate/tags"
  input: "ExponentialDecay"
  attr {
    key: "T"
    value {
      type: DT_FLOAT
    }
  }
  attr {
    key: "_output_shapes"
    value {
      list {
        shape {
        }
      }
    }
  }
}
node {
  name: "train_input/input_producer/Const"
  op: "Const"
  attr {
    key: "_output_shapes"
    value {
      list {
        shape {
          dim {
            size: 3844
          }
        }
      }
    }
  }
  attr {
    key: "dtype"
    value {
      type: DT_STRING
    }
  }
  attr {
    key: "value"
    value {
      tensor {
        dtype: DT_STRING
        tensor_shape {
          dim {
            size: 3844
          }
        }
        string_val: "gs://youtube8m-ml-us-east1/2/video/train/train00.tfrecord"
        string_val: "gs://youtube8m-ml-us-east1/2/video/train/train01.tfrecord"
        string_val: "gs://youtube8m-ml-us-east1/2/video/train/train02.tfrecord"
        string_val: "gs://youtube8m-ml-us-east1/2/video/train/train03.tfrecord"
        string_val: "gs://youtube8m-ml-us-east1/2/video/train/train04.tfrecord"
        string_val: "gs://youtube8m-ml-us-east1/2/video/train/train05.tfrecord"
        string_val: "gs://youtube8m-ml-us-east1/2/video/train/train06.tfrecord"
        string_val: "gs://youtube8m-ml-us-east1/2/video/train/train07.tfrecord"
        string_val: "gs://youtube8m-ml-us-east1/2/video/train/train08.tfrecord"
        string_val: "gs://youtube8m-ml-us-east1/2/video/train/train09.tfrecord"
        string_val: "gs://youtube8m-ml-us-east1/2/video/train/train0A.tfrecord"
        string_val: "gs://youtube8m-ml-us-east1/2/video/train/train0B.tfrecord"
        string_val: "gs://youtube8m-ml-us-east1/2/video/train/train0C.tfrecord"
        string_val: "gs://youtube8m-ml-us-east1/2/video/train/train0D.tfrecord"
        string_val: "gs://youtube8m-ml-us-east1/2/video/train/train0E.tfrecord"
        string_val: "gs://youtube8m-ml-us-east1/2/video/train/train0F.tfrecord"
        string_val: "gs://youtube8m-ml-us-east1/2/video/train/train0G.tfrecord"
        string_val: "gs://youtube8m-ml-us-east1/2/video/train/train0H.tfrecord"
        string_val: "gs://youtube8m-ml-us-east1/2/video/train/train0I.tfrecord"
        string_val: "gs://youtube8m-ml-us-east1/2/video/train/train0J.tfrecord"
        string_val: "gs://youtube8m-ml-us-east1/2/video/train/train0K.tfrecord"
        string_val: "gs://youtube8m-ml-us-east1/2/video/train/train0L.tfrecord"
        string_val: "gs://youtube8m-ml-us-east1/2/video/train/train0M.tfrecord"
        string_val: "gs://youtube8m-ml-us-east1/2/video/train/train0N.tfrecord"
        string_val: "gs://youtube8m-ml-us-east1/2/video/train/train0O.tfrecord"
        string_val: "gs://youtube8m-ml-us-east1/2/video/train/train0P.tfrecord"
        string_val: "gs://youtube8m-ml-us-east1/2/video/train/train0Q.tfrecord"
        string_val: "gs://youtube8m-ml-us-east1/2/video/train/train0R.tfrecord"
        string_val: "gs://youtube8m-ml-us-east1/2/video/train/train0S.tfrecord"
        string_val: "gs://youtube8m-ml-us-east1/2/video/train/train0T.tfrecord"
        string_val: "gs://youtube8m-ml-us-east1/2/video/train/train0U.tfrecord"
        string_val: "gs://youtube8m-ml-us-east1/2/video/train/train0V.tfrecord"
        string_val: "gs://youtube8m-ml-us-east1/2/video/train/train0W.tfrecord"
        string_val: "gs://youtube8m-ml-us-east1/2/video/train/train0X.tfrecord"
        string_val: "gs://youtube8m-ml-us-east1/2/video/train/train0Y.tfrecord"
        string_val: "gs://youtube8m-ml-us-east1/2/video/train/train0Z.tfrecord"
        string_val: "gs://youtube8m-ml-us-east1/2/video/train/train0a.tfrecord"
        string_val: "gs://youtube8m-ml-us-east1/2/video/train/train0b.tfrecord"
        string_val: "gs://youtube8m-ml-us-east1/2/video/train/train0c.tfrecord"
        string_val: "gs://youtube8m-ml-us-east1/2/video/train/train0d.tfrecord"
        string_val: "gs://youtube8m-ml-us-east1/2/video/train/train0e.tfrecord"
        string_val: "gs://youtube8m-ml-us-east1/2/video/train/train0f.tfrecord"
        string_val: "gs://youtube8m-ml-us-east1/2/video/train/train0g.tfrecord"
        string_val: "gs://youtube8m-ml-us-east1/2/video/train/train0h.tfrecord"
        string_val: "gs://youtube8m-ml-us-east1/2/video/train/train0i.tfrecord"
        string_val: "gs://youtube8m-ml-us-east1/2/video/train/train0j.tfrecord"
        string_val: "gs://youtube8m-ml-us-east1/2/video/train/train0k.tfrecord"
        string_val: "gs://youtube8m-ml-us-east1/2/video/train/train0l.tfrecord"
        string_val: "gs://youtube8m-ml-us-east1/2/video/train/train0m.tfrecord"
        string_val: "gs://youtube8m-ml-us-east1/2/video/train/train0n.tfrecord"
        string_val: "gs://youtube8m-ml-us-east1/2/video/train/train0o.tfrecord"
        string_val: "gs://youtube8m-ml-us-east1/2/video/train/train0p.tfrecord"
        string_val: "gs://youtube8m-ml-us-east1/2/video/train/train0q.tfrecord"
        string_val: "gs://youtube8m-ml-us-east1/2/video/train/train0r.tfrecord"
        string_val: "gs://youtube8m-ml-us-east1/2/video/train/train0s.tfrecord"
        string_val: "gs://youtube8m-ml-us-east1/2/video/train/train0t.tfrecord"
        string_val: "gs://youtube8m-ml-us-east1/2/video/train/train0u.tfrecord"
        string_val: "gs://youtube8m-ml-us-east1/2/video/train/train0v.tfrecord"
        string_val: "gs://youtube8m-ml-us-east1/2/video/train/train0w.tfrecord"
        string_val: "gs://youtube8m-ml-us-east1/2/video/train/train0x.tfrecord"
        string_val: "gs://youtube8m-ml-us-east1/2/video/train/train0y.tfrecord"
        string_val: "gs://youtube8m-ml-us-east1/2/video/train/train0z.tfrecord"
        string_val: "gs://youtube8m-ml-us-east1/2/video/train/train10.tfrecord"
        string_val: "gs://youtube8m-ml-us-east1/2/video/train/train11.tfrecord"
        string_val: "gs://youtube8m-ml-us-east1/2/video/train/train12.tfrecord"
        string_val: "gs://youtube8m-ml-us-east1/2/video/train/train13.tfrecord"
        string_val: "gs://youtube8m-ml-us-east1/2/video/train/train14.tfrecord"
        string_val: "gs://youtube8m-ml-us-east1/2/video/train/train15.tfrecord"
        string_val: "gs://youtube8m-ml-us-east1/2/video/train/train16.tfrecord"
        string_val: "gs://youtube8m-ml-us-east1/2/video/train/train17.tfrecord"
        string_val: "gs://youtube8m-ml-us-east1/2/video/train/train18.tfrecord"
        string_val: "gs://youtube8m-ml-us-east1/2/video/train/train19.tfrecord"
        string_val: "gs://youtube8m-ml-us-east1/2/video/train/train1A.tfrecord"
        string_val: "gs://youtube8m-ml-us-east1/2/video/train/train1B.tfrecord"
        string_val: "gs://youtube8m-ml-us-east1/2/video/train/train1C.tfrecord"
        string_val: "gs://youtube8m-ml-us-east1/2/video/train/train1D.tfrecord"
        string_val: "gs://youtube8m-ml-us-east1/2/video/train/train1E.tfrecord"
        string_val: "gs://youtube8m-ml-us-east1/2/video/train/train1F.tfrecord"
        string_val: "gs://youtube8m-ml-us-east1/2/video/train/train1G.tfrecord"
        string_val: "gs://youtube8m-ml-us-east1/2/video/train/train1H.tfrecord"
        string_val: "gs://youtube8m-ml-us-east1/2/video/train/train1I.tfrecord"
        string_val: "gs://youtube8m-ml-us-east1/2/video/train/train1J.tfrecord"
        string_val: "gs://youtube8m-ml-us-east1/2/video/train/train1K.tfrecord"
        string_val: "gs://youtube8m-ml-us-east1/2/video/train/train1L.tfrecord"
        string_val: "gs://youtube8m-ml-us-east1/2/video/train/train1M.tfrecord"
        string_val: "gs://youtube8m-ml-us-east1/2/video/train/train1N.tfrecord"
        string_val: "gs://youtube8m-ml-us-east1/2/video/train/train1O.tfrecord"
        string_val: "gs://youtube8m-ml-us-east1/2/video/train/train1P.tfrecord"
        string_val: "gs://youtube8m-ml-us-east1/2/video/train/train1Q.tfrecord"
        string_val: "gs://youtube8m-ml-us-east1/2/video/train/train1R.tfrecord"
        string_val: "gs://youtube8m-ml-us-east1/2/video/train/train1S.tfrecord"
        string_val: "gs://youtube8m-ml-us-east1/2/video/train/train1T.tfrecord"
        string_val: "gs://youtube8m-ml-us-east1/2/video/train/train1U.tfrecord"
        string_val: "gs://youtube8m-ml-us-east1/2/video/train/train1V.tfrecord"
        string_val: "gs://youtube8m-ml-us-east1/2/video/train/train1W.tfrecord"
        string_val: "gs://youtube8m-ml-us-east1/2/video/train/train1X.tfrecord"
        string_val: "gs://youtube8m-ml-us-east1/2/video/train/train1Y.tfrecord"
        string_val: "gs://youtube8m-ml-us-east1/2/video/train/train1Z.tfrecord"
        string_val: "gs://youtube8m-ml-us-east1/2/video/train/train1a.tfrecord"
        string_val: "gs://youtube8m-ml-us-east1/2/video/train/train1b.tfrecord"
        string_val: "gs://youtube8m-ml-us-east1/2/video/train/train1c.tfrecord"
        string_val: "gs://youtube8m-ml-us-east1/2/video/train/train1d.tfrecord"
        string_val: "gs://youtube8m-ml-us-east1/2/video/train/train1e.tfrecord"
        string_val: "gs://youtube8m-ml-us-east1/2/video/train/train1f.tfrecord"
        string_val: "gs://youtube8m-ml-us-east1/2/video/train/train1g.tfrecord"
        string_val: "gs://youtube8m-ml-us-east1/2/video/train/train1h.tfrecord"
        string_val: "gs://youtube8m-ml-us-east1/2/video/train/train1i.tfrecord"
        string_val: "gs://youtube8m-ml-us-east1/2/video/train/train1j.tfrecord"
        string_val: "gs://youtube8m-ml-us-east1/2/video/train/train1k.tfrecord"
        string_val: "gs://youtube8m-ml-us-east1/2/video/train/train1l.tfrecord"
        string_val: "gs://youtube8m-ml-us-east1/2/video/train/train1m.tfrecord"
        string_val: "gs://youtube8m-ml-us-east1/2/video/train/train1n.tfrecord"
        string_val: "gs://youtube8m-ml-us-east1/2/video/train/train1o.tfrecord"
        string_val: "gs://youtube8m-ml-us-east1/2/video/train/train1p.tfrecord"
        string_val: "gs://youtube8m-ml-us-east1/2/video/train/train1q.tfrecord"
        string_val: "gs://youtube8m-ml-us-east1/2/video/train/train1r.tfrecord"
        string_val: "gs://youtube8m-ml-us-east1/2/video/train/train1s.tfrecord"
        string_val: "gs://youtube8m-ml-us-east1/2/video/train/train1t.tfrecord"
        string_val: "gs://youtube8m-ml-us-east1/2/video/train/train1u.tfrecord"
        string_val: "gs://youtube8m-ml-us-east1/2/video/train/train1v.tfrecord"
        string_val: "gs://youtube8m-ml-us-east1/2/video/train/train1w.tfrecord"
        string_val: "gs://youtube8m-ml-us-east1/2/video/train/train1x.tfrecord"
        string_val: "gs://youtube8m-ml-us-east1/2/video/train/train1y.tfrecord"
        string_val: "gs://youtube8m-ml-us-east1/2/video/train/train1z.tfrecord"
        string_val: "gs://youtube8m-ml-us-east1/2/video/train/train20.tfrecord"
        string_val: "gs://youtube8m-ml-us-east1/2/video/train/train21.tfrecord"
        string_val: "gs://youtube8m-ml-us-east1/2/video/train/train22.tfrecord"
        string_val: "gs://youtube8m-ml-us-east1/2/video/train/train23.tfrecord"
        string_val: "gs://youtube8m-ml-us-east1/2/video/train/train24.tfrecord"
        string_val: "gs://youtube8m-ml-us-east1/2/video/train/train25.tfrecord"
        string_val: "gs://youtube8m-ml-us-east1/2/video/train/train26.tfrecord"
        string_val: "gs://youtube8m-ml-us-east1/2/video/train/train27.tfrecord"
        string_val: "gs://youtube8m-ml-us-east1/2/video/train/train28.tfrecord"
        string_val: "gs://youtube8m-ml-us-east1/2/video/train/train29.tfrecord"
        string_val: "gs://youtube8m-ml-us-east1/2/video/train/train2A.tfrecord"
        string_val: "gs://youtube8m-ml-us-east1/2/video/train/train2B.tfrecord"
        string_val: "gs://youtube8m-ml-us-east1/2/video/train/train2C.tfrecord"
        string_val: "gs://youtube8m-ml-us-east1/2/video/train/train2D.tfrecord"
        string_val: "gs://youtube8m-ml-us-east1/2/video/train/train2E.tfrecord"
        string_val: "gs://youtube8m-ml-us-east1/2/video/train/train2F.tfrecord"
        string_val: "gs://youtube8m-ml-us-east1/2/video/train/train2G.tfrecord"
        string_val: "gs://youtube8m-ml-us-east1/2/video/train/train2H.tfrecord"
        string_val: "gs://youtube8m-ml-us-east1/2/video/train/train2I.tfrecord"
        string_val: "gs://youtube8m-ml-us-east1/2/video/train/train2J.tfrecord"
        string_val: "gs://youtube8m-ml-us-east1/2/video/train/train2K.tfrecord"
        string_val: "gs://youtube8m-ml-us-east1/2/video/train/train2L.tfrecord"
        string_val: "gs://youtube8m-ml-us-east1/2/video/train/train2M.tfrecord"
        string_val: "gs://youtube8m-ml-us-east1/2/video/train/train2N.tfrecord"
        string_val: "gs://youtube8m-ml-us-east1/2/video/train/train2O.tfrecord"
        string_val: "gs://youtube8m-ml-us-east1/2/video/train/train2P.tfrecord"
        string_val: "gs://youtube8m-ml-us-east1/2/video/train/train2Q.tfrecord"
        string_val: "gs://youtube8m-ml-us-east1/2/video/train/train2R.tfrecord"
        string_val: "gs://youtube8m-ml-us-east1/2/video/train/train2S.tfrecord"
        string_val: "gs://youtube8m-ml-us-east1/2/video/train/train2T.tfrecord"
        string_val: "gs://youtube8m-ml-us-east1/2/video/train/train2U.tfrecord"
        string_val: "gs://youtube8m-ml-us-east1/2/video/train/train2V.tfrecord"
        string_val: "gs://youtube8m-ml-us-east1/2/video/train/train2W.tfrecord"
        string_val: "gs://youtube8m-ml-us-east1/2/video/train/train2X.tfrecord"
        string_val: "gs://youtube8m-ml-us-east1/2/video/train/train2Y.tfrecord"
        string_val: "gs://youtube8m-ml-us-east1/2/video/train/train2Z.tfrecord"
        string_val: "gs://youtube8m-ml-us-east1/2/video/train/train2a.tfrecord"
        string_val: "gs://youtube8m-ml-us-east1/2/video/train/train2b.tfrecord"
        string_val: "gs://youtube8m-ml-us-east1/2/video/train/train2c.tfrecord"
        string_val: "gs://youtube8m-ml-us-east1/2/video/train/train2d.tfrecord"
        string_val: "gs://youtube8m-ml-us-east1/2/video/train/train2e.tfrecord"
        string_val: "gs://youtube8m-ml-us-east1/2/video/train/train2f.tfrecord"
        string_val: "gs://youtube8m-ml-us-east1/2/video/train/train2g.tfrecord"
        string_val: "gs://youtube8m-ml-us-east1/2/video/train/train2h.tfrecord"
        string_val: "gs://youtube8m-ml-us-east1/2/video/train/train2i.tfrecord"
        string_val: "gs://youtube8m-ml-us-east1/2/video/train/train2j.tfrecord"
        string_val: "gs://youtube8m-ml-us-east1/2/video/train/train2k.tfrecord"
        string_val: "gs://youtube8m-ml-us-east1/2/video/train/train2l.tfrecord"
        string_val: "gs://youtube8m-ml-us-east1/2/video/train/train2m.tfrecord"
        string_val: "gs://youtube8m-ml-us-east1/2/video/train/train2n.tfrecord"
        string_val: "gs://youtube8m-ml-us-east1/2/video/train/train2o.tfrecord"
        string_val: "gs://youtube8m-ml-us-east1/2/video/train/train2p.tfrecord"
        string_val: "gs://youtube8m-ml-us-east1/2/video/train/train2q.tfrecord"
        string_val: "gs://youtube8m-ml-us-east1/2/video/train/train2r.tfrecord"
        string_val: "gs://youtube8m-ml-us-east1/2/video/train/train2s.tfrecord"
        string_val: "gs://youtube8m-ml-us-east1/2/video/train/train2t.tfrecord"
        string_val: "gs://youtube8m-ml-us-east1/2/video/train/train2u.tfrecord"
        string_val: "gs://youtube8m-ml-us-east1/2/video/train/train2v.tfrecord"
        string_val: "gs://youtube8m-ml-us-east1/2/video/train/train2w.tfrecord"
        string_val: "gs://youtube8m-ml-us-east1/2/video/train/train2x.tfrecord"
        string_val: "gs://youtube8m-ml-us-east1/2/video/train/train2y.tfrecord"
        string_val: "gs://youtube8m-ml-us-east1/2/video/train/train2z.tfrecord"
        string_val: "gs://youtube8m-ml-us-east1/2/video/train/train30.tfrecord"
        string_val: "gs://youtube8m-ml-us-east1/2/video/train/train31.tfrecord"
        string_val: "gs://youtube8m-ml-us-east1/2/video/train/train32.tfrecord"
        string_val: "gs://youtube8m-ml-us-east1/2/video/train/train33.tfrecord"
        string_val: "gs://youtube8m-ml-us-east1/2/video/train/train34.tfrecord"
        string_val: "gs://youtube8m-ml-us-east1/2/video/train/train35.tfrecord"
        string_val: "gs://youtube8m-ml-us-east1/2/video/train/train36.tfrecord"
        string_val: "gs://youtube8m-ml-us-east1/2/video/train/train37.tfrecord"
        string_val: "gs://youtube8m-ml-us-east1/2/video/train/train38.tfrecord"
        string_val: "gs://youtube8m-ml-us-east1/2/video/train/train39.tfrecord"
        string_val: "gs://youtube8m-ml-us-east1/2/video/train/train3A.tfrecord"
        string_val: "gs://youtube8m-ml-us-east1/2/video/train/train3B.tfrecord"
        string_val: "gs://youtube8m-ml-us-east1/2/video/train/train3C.tfrecord"
        string_val: "gs://youtube8m-ml-us-east1/2/video/train/train3D.tfrecord"
        string_val: "gs://youtube8m-ml-us-east1/2/video/train/train3E.tfrecord"
        string_val: "gs://youtube8m-ml-us-east1/2/video/train/train3F.tfrecord"
        string_val: "gs://youtube8m-ml-us-east1/2/video/train/train3G.tfrecord"
        string_val: "gs://youtube8m-ml-us-east1/2/video/train/train3H.tfrecord"
        string_val: "gs://youtube8m-ml-us-east1/2/video/train/train3I.tfrecord"
        string_val: "gs://youtube8m-ml-us-east1/2/video/train/train3J.tfrecord"
        string_val: "gs://youtube8m-ml-us-east1/2/video/train/train3K.tfrecord"
        string_val: "gs://youtube8m-ml-us-east1/2/video/train/train3L.tfrecord"
        string_val: "gs://youtube8m-ml-us-east1/2/video/train/train3M.tfrecord"
        string_val: "gs://youtube8m-ml-us-east1/2/video/train/train3N.tfrecord"
        string_val: "gs://youtube8m-ml-us-east1/2/video/train/train3O.tfrecord"
        string_val: "gs://youtube8m-ml-us-east1/2/video/train/train3P.tfrecord"
        string_val: "gs://youtube8m-ml-us-east1/2/video/train/train3Q.tfrecord"
        string_val: "gs://youtube8m-ml-us-east1/2/video/train/train3R.tfrecord"
        string_val: "gs://youtube8m-ml-us-east1/2/video/train/train3S.tfrecord"
        string_val: "gs://youtube8m-ml-us-east1/2/video/train/train3T.tfrecord"
        string_val: "gs://youtube8m-ml-us-east1/2/video/train/train3U.tfrecord"
        string_val: "gs://youtube8m-ml-us-east1/2/video/train/train3V.tfrecord"
        string_val: "gs://youtube8m-ml-us-east1/2/video/train/train3W.tfrecord"
        string_val: "gs://youtube8m-ml-us-east1/2/video/train/train3X.tfrecord"
        string_val: "gs://youtube8m-ml-us-east1/2/video/train/train3Y.tfrecord"
        string_val: "gs://youtube8m-ml-us-east1/2/video/train/train3Z.tfrecord"
        string_val: "gs://youtube8m-ml-us-east1/2/video/train/train3a.tfrecord"
        string_val: "gs://youtube8m-ml-us-east1/2/video/train/train3b.tfrecord"
        string_val: "gs://youtube8m-ml-us-east1/2/video/train/train3c.tfrecord"
        string_val: "gs://youtube8m-ml-us-east1/2/video/train/train3d.tfrecord"
        string_val: "gs://youtube8m-ml-us-east1/2/video/train/train3e.tfrecord"
        string_val: "gs://youtube8m-ml-us-east1/2/video/train/train3f.tfrecord"
        string_val: "gs://youtube8m-ml-us-east1/2/video/train/train3g.tfrecord"
        string_val: "gs://youtube8m-ml-us-east1/2/video/train/train3h.tfrecord"
        string_val: "gs://youtube8m-ml-us-east1/2/video/train/train3i.tfrecord"
        string_val: "gs://youtube8m-ml-us-east1/2/video/train/train3j.tfrecord"
        string_val: "gs://youtube8m-ml-us-east1/2/video/train/train3k.tfrecord"
        string_val: "gs://youtube8m-ml-us-east1/2/video/train/train3l.tfrecord"
        string_val: "gs://youtube8m-ml-us-east1/2/video/train/train3m.tfrecord"
        string_val: "gs://youtube8m-ml-us-east1/2/video/train/train3n.tfrecord"
        string_val: "gs://youtube8m-ml-us-east1/2/video/train/train3o.tfrecord"
        string_val: "gs://youtube8m-ml-us-east1/2/video/train/train3p.tfrecord"
        string_val: "gs://youtube8m-ml-us-east1/2/video/train/train3q.tfrecord"
        string_val: "gs://youtube8m-ml-us-east1/2/video/train/train3r.tfrecord"
        string_val: "gs://youtube8m-ml-us-east1/2/video/train/train3s.tfrecord"
        string_val: "gs://youtube8m-ml-us-east1/2/video/train/train3t.tfrecord"
        string_val: "gs://youtube8m-ml-us-east1/2/video/train/train3u.tfrecord"
        string_val: "gs://youtube8m-ml-us-east1/2/video/train/train3v.tfrecord"
        string_val: "gs://youtube8m-ml-us-east1/2/video/train/train3w.tfrecord"
        string_val: "gs://youtube8m-ml-us-east1/2/video/train/train3x.tfrecord"
        string_val: "gs://youtube8m-ml-us-east1/2/video/train/train3y.tfrecord"
        string_val: "gs://youtube8m-ml-us-east1/2/video/train/train3z.tfrecord"
        string_val: "gs://youtube8m-ml-us-east1/2/video/train/train40.tfrecord"
        string_val: "gs://youtube8m-ml-us-east1/2/video/train/train41.tfrecord"
        string_val: "gs://youtube8m-ml-us-east1/2/video/train/train42.tfrecord"
        string_val: "gs://youtube8m-ml-us-east1/2/video/train/train43.tfrecord"
        string_val: "gs://youtube8m-ml-us-east1/2/video/train/train44.tfrecord"
        string_val: "gs://youtube8m-ml-us-east1/2/video/train/train45.tfrecord"
        string_val: "gs://youtube8m-ml-us-east1/2/video/train/train46.tfrecord"
        string_val: "gs://youtube8m-ml-us-east1/2/video/train/train47.tfrecord"
        string_val: "gs://youtube8m-ml-us-east1/2/video/train/train48.tfrecord"
        string_val: "gs://youtube8m-ml-us-east1/2/video/train/train49.tfrecord"
        string_val: "gs://youtube8m-ml-us-east1/2/video/train/train4A.tfrecord"
        string_val: "gs://youtube8m-ml-us-east1/2/video/train/train4B.tfrecord"
        string_val: "gs://youtube8m-ml-us-east1/2/video/train/train4C.tfrecord"
        string_val: "gs://youtube8m-ml-us-east1/2/video/train/train4D.tfrecord"
        string_val: "gs://youtube8m-ml-us-east1/2/video/train/train4E.tfrecord"
        string_val: "gs://youtube8m-ml-us-east1/2/video/train/train4F.tfrecord"
        string_val: "gs://youtube8m-ml-us-east1/2/video/train/train4G.tfrecord"
        string_val: "gs://youtube8m-ml-us-east1/2/video/train/train4H.tfrecord"
        string_val: "gs://youtube8m-ml-us-east1/2/video/train/train4I.tfrecord"
        string_val: "gs://youtube8m-ml-us-east1/2/video/train/train4J.tfrecord"
        string_val: "gs://youtube8m-ml-us-east1/2/video/train/train4K.tfrecord"
        string_val: "gs://youtube8m-ml-us-east1/2/video/train/train4L.tfrecord"
        string_val: "gs://youtube8m-ml-us-east1/2/video/train/train4M.tfrecord"
        string_val: "gs://youtube8m-ml-us-east1/2/video/train/train4N.tfrecord"
        string_val: "gs://youtube8m-ml-us-east1/2/video/train/train4O.tfrecord"
        string_val: "gs://youtube8m-ml-us-east1/2/video/train/train4P.tfrecord"
        string_val: "gs://youtube8m-ml-us-east1/2/video/train/train4Q.tfrecord"
        string_val: "gs://youtube8m-ml-us-east1/2/video/train/train4R.tfrecord"
        string_val: "gs://youtube8m-ml-us-east1/2/video/train/train4S.tfrecord"
        string_val: "gs://youtube8m-ml-us-east1/2/video/train/train4T.tfrecord"
        string_val: "gs://youtube8m-ml-us-east1/2/video/train/train4U.tfrecord"
        string_val: "gs://youtube8m-ml-us-east1/2/video/train/train4V.tfrecord"
        string_val: "gs://youtube8m-ml-us-east1/2/video/train/train4W.tfrecord"
        string_val: "gs://youtube8m-ml-us-east1/2/video/train/train4X.tfrecord"
        string_val: "gs://youtube8m-ml-us-east1/2/video/train/train4Y.tfrecord"
        string_val: "gs://youtube8m-ml-us-east1/2/video/train/train4Z.tfrecord"
        string_val: "gs://youtube8m-ml-us-east1/2/video/train/train4a.tfrecord"
        string_val: "gs://youtube8m-ml-us-east1/2/video/train/train4b.tfrecord"
        string_val: "gs://youtube8m-ml-us-east1/2/video/train/train4c.tfrecord"
        string_val: "gs://youtube8m-ml-us-east1/2/video/train/train4d.tfrecord"
        string_val: "gs://youtube8m-ml-us-east1/2/video/train/train4e.tfrecord"
        string_val: "gs://youtube8m-ml-us-east1/2/video/train/train4f.tfrecord"
        string_val: "gs://youtube8m-ml-us-east1/2/video/train/train4g.tfrecord"
        string_val: "gs://youtube8m-ml-us-east1/2/video/train/train4h.tfrecord"
        string_val: "gs://youtube8m-ml-us-east1/2/video/train/train4i.tfrecord"
        string_val: "gs://youtube8m-ml-us-east1/2/video/train/train4j.tfrecord"
        string_val: "gs://youtube8m-ml-us-east1/2/video/train/train4k.tfrecord"
        string_val: "gs://youtube8m-ml-us-east1/2/video/train/train4l.tfrecord"
        string_val: "gs://youtube8m-ml-us-east1/2/video/train/train4m.tfrecord"
        string_val: "gs://youtube8m-ml-us-east1/2/video/train/train4n.tfrecord"
        string_val: "gs://youtube8m-ml-us-east1/2/video/train/train4o.tfrecord"
        string_val: "gs://youtube8m-ml-us-east1/2/video/train/train4p.tfrecord"
        string_val: "gs://youtube8m-ml-us-east1/2/video/train/train4q.tfrecord"
        string_val: "gs://youtube8m-ml-us-east1/2/video/train/train4r.tfrecord"
        string_val: "gs://youtube8m-ml-us-east1/2/video/train/train4s.tfrecord"
        string_val: "gs://youtube8m-ml-us-east1/2/video/train/train4t.tfrecord"
        string_val: "gs://youtube8m-ml-us-east1/2/video/train/train4u.tfrecord"
        string_val: "gs://youtube8m-ml-us-east1/2/video/train/train4v.tfrecord"
        string_val: "gs://youtube8m-ml-us-east1/2/video/train/train4w.tfrecord"
        string_val: "gs://youtube8m-ml-us-east1/2/video/train/train4x.tfrecord"
        string_val: "gs://youtube8m-ml-us-east1/2/video/train/train4y.tfrecord"
        string_val: "gs://youtube8m-ml-us-east1/2/video/train/train4z.tfrecord"
        string_val: "gs://youtube8m-ml-us-east1/2/video/train/train50.tfrecord"
        string_val: "gs://youtube8m-ml-us-east1/2/video/train/train51.tfrecord"
        string_val: "gs://youtube8m-ml-us-east1/2/video/train/train52.tfrecord"
        string_val: "gs://youtube8m-ml-us-east1/2/video/train/train53.tfrecord"
        string_val: "gs://youtube8m-ml-us-east1/2/video/train/train54.tfrecord"
        string_val: "gs://youtube8m-ml-us-east1/2/video/train/train55.tfrecord"
        string_val: "gs://youtube8m-ml-us-east1/2/video/train/train56.tfrecord"
        string_val: "gs://youtube8m-ml-us-east1/2/video/train/train57.tfrecord"
        string_val: "gs://youtube8m-ml-us-east1/2/video/train/train58.tfrecord"
        string_val: "gs://youtube8m-ml-us-east1/2/video/train/train59.tfrecord"
        string_val: "gs://youtube8m-ml-us-east1/2/video/train/train5A.tfrecord"
        string_val: "gs://youtube8m-ml-us-east1/2/video/train/train5B.tfrecord"
        string_val: "gs://youtube8m-ml-us-east1/2/video/train/train5C.tfrecord"
        string_val: "gs://youtube8m-ml-us-east1/2/video/train/train5D.tfrecord"
        string_val: "gs://youtube8m-ml-us-east1/2/video/train/train5E.tfrecord"
        string_val: "gs://youtube8m-ml-us-east1/2/video/train/train5F.tfrecord"
        string_val: "gs://youtube8m-ml-us-east1/2/video/train/train5G.tfrecord"
        string_val: "gs://youtube8m-ml-us-east1/2/video/train/train5H.tfrecord"
        string_val: "gs://youtube8m-ml-us-east1/2/video/train/train5I.tfrecord"
        string_val: "gs://youtube8m-ml-us-east1/2/video/train/train5J.tfrecord"
        string_val: "gs://youtube8m-ml-us-east1/2/video/train/train5K.tfrecord"
        string_val: "gs://youtube8m-ml-us-east1/2/video/train/train5L.tfrecord"
        string_val: "gs://youtube8m-ml-us-east1/2/video/train/train5M.tfrecord"
        string_val: "gs://youtube8m-ml-us-east1/2/video/train/train5N.tfrecord"
        string_val: "gs://youtube8m-ml-us-east1/2/video/train/train5O.tfrecord"
        string_val: "gs://youtube8m-ml-us-east1/2/video/train/train5P.tfrecord"
        string_val: "gs://youtube8m-ml-us-east1/2/video/train/train5Q.tfrecord"
        string_val: "gs://youtube8m-ml-us-east1/2/video/train/train5R.tfrecord"
        string_val: "gs://youtube8m-ml-us-east1/2/video/train/train5S.tfrecord"
        string_val: "gs://youtube8m-ml-us-east1/2/video/train/train5T.tfrecord"
        string_val: "gs://youtube8m-ml-us-east1/2/video/train/train5U.tfrecord"
        string_val: "gs://youtube8m-ml-us-east1/2/video/train/train5V.tfrecord"
        string_val: "gs://youtube8m-ml-us-east1/2/video/train/train5W.tfrecord"
        string_val: "gs://youtube8m-ml-us-east1/2/video/train/train5X.tfrecord"
        string_val: "gs://youtube8m-ml-us-east1/2/video/train/train5Y.tfrecord"
        string_val: "gs://youtube8m-ml-us-east1/2/video/train/train5Z.tfrecord"
        string_val: "gs://youtube8m-ml-us-east1/2/video/train/train5a.tfrecord"
        string_val: "gs://youtube8m-ml-us-east1/2/video/train/train5b.tfrecord"
        string_val: "gs://youtube8m-ml-us-east1/2/video/train/train5c.tfrecord"
        string_val: "gs://youtube8m-ml-us-east1/2/video/train/train5d.tfrecord"
        string_val: "gs://youtube8m-ml-us-east1/2/video/train/train5e.tfrecord"
        string_val: "gs://youtube8m-ml-us-east1/2/video/train/train5f.tfrecord"
        string_val: "gs://youtube8m-ml-us-east1/2/video/train/train5g.tfrecord"
        string_val: "gs://youtube8m-ml-us-east1/2/video/train/train5h.tfrecord"
        string_val: "gs://youtube8m-ml-us-east1/2/video/train/train5i.tfrecord"
        string_val: "gs://youtube8m-ml-us-east1/2/video/train/train5j.tfrecord"
        string_val: "gs://youtube8m-ml-us-east1/2/video/train/train5k.tfrecord"
        string_val: "gs://youtube8m-ml-us-east1/2/video/train/train5l.tfrecord"
        string_val: "gs://youtube8m-ml-us-east1/2/video/train/train5m.tfrecord"
        string_val: "gs://youtube8m-ml-us-east1/2/video/train/train5n.tfrecord"
        string_val: "gs://youtube8m-ml-us-east1/2/video/train/train5o.tfrecord"
        string_val: "gs://youtube8m-ml-us-east1/2/video/train/train5p.tfrecord"
        string_val: "gs://youtube8m-ml-us-east1/2/video/train/train5q.tfrecord"
        string_val: "gs://youtube8m-ml-us-east1/2/video/train/train5r.tfrecord"
        string_val: "gs://youtube8m-ml-us-east1/2/video/train/train5s.tfrecord"
        string_val: "gs://youtube8m-ml-us-east1/2/video/train/train5t.tfrecord"
        string_val: "gs://youtube8m-ml-us-east1/2/video/train/train5u.tfrecord"
        string_val: "gs://youtube8m-ml-us-east1/2/video/train/train5v.tfrecord"
        string_val: "gs://youtube8m-ml-us-east1/2/video/train/train5w.tfrecord"
        string_val: "gs://youtube8m-ml-us-east1/2/video/train/train5x.tfrecord"
        string_val: "gs://youtube8m-ml-us-east1/2/video/train/train5y.tfrecord"
        string_val: "gs://youtube8m-ml-us-east1/2/video/train/train5z.tfrecord"
        string_val: "gs://youtube8m-ml-us-east1/2/video/train/train60.tfrecord"
        string_val: "gs://youtube8m-ml-us-east1/2/video/train/train61.tfrecord"
        string_val: "gs://youtube8m-ml-us-east1/2/video/train/train62.tfrecord"
        string_val: "gs://youtube8m-ml-us-east1/2/video/train/train63.tfrecord"
        string_val: "gs://youtube8m-ml-us-east1/2/video/train/train64.tfrecord"
        string_val: "gs://youtube8m-ml-us-east1/2/video/train/train65.tfrecord"
        string_val: "gs://youtube8m-ml-us-east1/2/video/train/train66.tfrecord"
        string_val: "gs://youtube8m-ml-us-east1/2/video/train/train67.tfrecord"
        string_val: "gs://youtube8m-ml-us-east1/2/video/train/train68.tfrecord"
        string_val: "gs://youtube8m-ml-us-east1/2/video/train/train69.tfrecord"
        string_val: "gs://youtube8m-ml-us-east1/2/video/train/train6A.tfrecord"
        string_val: "gs://youtube8m-ml-us-east1/2/video/train/train6B.tfrecord"
        string_val: "gs://youtube8m-ml-us-east1/2/video/train/train6C.tfrecord"
        string_val: "gs://youtube8m-ml-us-east1/2/video/train/train6D.tfrecord"
        string_val: "gs://youtube8m-ml-us-east1/2/video/train/train6E.tfrecord"
        string_val: "gs://youtube8m-ml-us-east1/2/video/train/train6F.tfrecord"
        string_val: "gs://youtube8m-ml-us-east1/2/video/train/train6G.tfrecord"
        string_val: "gs://youtube8m-ml-us-east1/2/video/train/train6H.tfrecord"
        string_val: "gs://youtube8m-ml-us-east1/2/video/train/train6I.tfrecord"
        string_val: "gs://youtube8m-ml-us-east1/2/video/train/train6J.tfrecord"
        string_val: "gs://youtube8m-ml-us-east1/2/video/train/train6K.tfrecord"
        string_val: "gs://youtube8m-ml-us-east1/2/video/train/train6L.tfrecord"
        string_val: "gs://youtube8m-ml-us-east1/2/video/train/train6M.tfrecord"
        string_val: "gs://youtube8m-ml-us-east1/2/video/train/train6N.tfrecord"
        string_val: "gs://youtube8m-ml-us-east1/2/video/train/train6O.tfrecord"
        string_val: "gs://youtube8m-ml-us-east1/2/video/train/train6P.tfrecord"
        string_val: "gs://youtube8m-ml-us-east1/2/video/train/train6Q.tfrecord"
        string_val: "gs://youtube8m-ml-us-east1/2/video/train/train6R.tfrecord"
        string_val: "gs://youtube8m-ml-us-east1/2/video/train/train6S.tfrecord"
        string_val: "gs://youtube8m-ml-us-east1/2/video/train/train6T.tfrecord"
        string_val: "gs://youtube8m-ml-us-east1/2/video/train/train6U.tfrecord"
        string_val: "gs://youtube8m-ml-us-east1/2/video/train/train6V.tfrecord"
        string_val: "gs://youtube8m-ml-us-east1/2/video/train/train6W.tfrecord"
        string_val: "gs://youtube8m-ml-us-east1/2/video/train/train6X.tfrecord"
        string_val: "gs://youtube8m-ml-us-east1/2/video/train/train6Y.tfrecord"
        string_val: "gs://youtube8m-ml-us-east1/2/video/train/train6Z.tfrecord"
        string_val: "gs://youtube8m-ml-us-east1/2/video/train/train6a.tfrecord"
        string_val: "gs://youtube8m-ml-us-east1/2/video/train/train6b.tfrecord"
        string_val: "gs://youtube8m-ml-us-east1/2/video/train/train6c.tfrecord"
        string_val: "gs://youtube8m-ml-us-east1/2/video/train/train6d.tfrecord"
        string_val: "gs://youtube8m-ml-us-east1/2/video/train/train6e.tfrecord"
        string_val: "gs://youtube8m-ml-us-east1/2/video/train/train6f.tfrecord"
        string_val: "gs://youtube8m-ml-us-east1/2/video/train/train6g.tfrecord"
        string_val: "gs://youtube8m-ml-us-east1/2/video/train/train6h.tfrecord"
        string_val: "gs://youtube8m-ml-us-east1/2/video/train/train6i.tfrecord"
        string_val: "gs://youtube8m-ml-us-east1/2/video/train/train6j.tfrecord"
        string_val: "gs://youtube8m-ml-us-east1/2/video/train/train6k.tfrecord"
        string_val: "gs://youtube8m-ml-us-east1/2/video/train/train6l.tfrecord"
        string_val: "gs://youtube8m-ml-us-east1/2/video/train/train6m.tfrecord"
        string_val: "gs://youtube8m-ml-us-east1/2/video/train/train6n.tfrecord"
        string_val: "gs://youtube8m-ml-us-east1/2/video/train/train6o.tfrecord"
        string_val: "gs://youtube8m-ml-us-east1/2/video/train/train6p.tfrecord"
        string_val: "gs://youtube8m-ml-us-east1/2/video/train/train6q.tfrecord"
        string_val: "gs://youtube8m-ml-us-east1/2/video/train/train6r.tfrecord"
        string_val: "gs://youtube8m-ml-us-east1/2/video/train/train6s.tfrecord"
        string_val: "gs://youtube8m-ml-us-east1/2/video/train/train6t.tfrecord"
        string_val: "gs://youtube8m-ml-us-east1/2/video/train/train6u.tfrecord"
        string_val: "gs://youtube8m-ml-us-east1/2/video/train/train6v.tfrecord"
        string_val: "gs://youtube8m-ml-us-east1/2/video/train/train6w.tfrecord"
        string_val: "gs://youtube8m-ml-us-east1/2/video/train/train6x.tfrecord"
        string_val: "gs://youtube8m-ml-us-east1/2/video/train/train6y.tfrecord"
        string_val: "gs://youtube8m-ml-us-east1/2/video/train/train6z.tfrecord"
        string_val: "gs://youtube8m-ml-us-east1/2/video/train/train70.tfrecord"
        string_val: "gs://youtube8m-ml-us-east1/2/video/train/train71.tfrecord"
        string_val: "gs://youtube8m-ml-us-east1/2/video/train/train72.tfrecord"
        string_val: "gs://youtube8m-ml-us-east1/2/video/train/train73.tfrecord"
        string_val: "gs://youtube8m-ml-us-east1/2/video/train/train74.tfrecord"
        string_val: "gs://youtube8m-ml-us-east1/2/video/train/train75.tfrecord"
        string_val: "gs://youtube8m-ml-us-east1/2/video/train/train76.tfrecord"
        string_val: "gs://youtube8m-ml-us-east1/2/video/train/train77.tfrecord"
        string_val: "gs://youtube8m-ml-us-east1/2/video/train/train78.tfrecord"
        string_val: "gs://youtube8m-ml-us-east1/2/video/train/train79.tfrecord"
        string_val: "gs://youtube8m-ml-us-east1/2/video/train/train7A.tfrecord"
        string_val: "gs://youtube8m-ml-us-east1/2/video/train/train7B.tfrecord"
        string_val: "gs://youtube8m-ml-us-east1/2/video/train/train7C.tfrecord"
        string_val: "gs://youtube8m-ml-us-east1/2/video/train/train7D.tfrecord"
        string_val: "gs://youtube8m-ml-us-east1/2/video/train/train7E.tfrecord"
        string_val: "gs://youtube8m-ml-us-east1/2/video/train/train7F.tfrecord"
        string_val: "gs://youtube8m-ml-us-east1/2/video/train/train7G.tfrecord"
        string_val: "gs://youtube8m-ml-us-east1/2/video/train/train7H.tfrecord"
        string_val: "gs://youtube8m-ml-us-east1/2/video/train/train7I.tfrecord"
        string_val: "gs://youtube8m-ml-us-east1/2/video/train/train7J.tfrecord"
        string_val: "gs://youtube8m-ml-us-east1/2/video/train/train7K.tfrecord"
        string_val: "gs://youtube8m-ml-us-east1/2/video/train/train7L.tfrecord"
        string_val: "gs://youtube8m-ml-us-east1/2/video/train/train7M.tfrecord"
        string_val: "gs://youtube8m-ml-us-east1/2/video/train/train7N.tfrecord"
        string_val: "gs://youtube8m-ml-us-east1/2/video/train/train7O.tfrecord"
        string_val: "gs://youtube8m-ml-us-east1/2/video/train/train7P.tfrecord"
        string_val: "gs://youtube8m-ml-us-east1/2/video/train/train7Q.tfrecord"
        string_val: "gs://youtube8m-ml-us-east1/2/video/train/train7R.tfrecord"
        string_val: "gs://youtube8m-ml-us-east1/2/video/train/train7S.tfrecord"
        string_val: "gs://youtube8m-ml-us-east1/2/video/train/train7T.tfrecord"
        string_val: "gs://youtube8m-ml-us-east1/2/video/train/train7U.tfrecord"
        string_val: "gs://youtube8m-ml-us-east1/2/video/train/train7V.tfrecord"
        string_val: "gs://youtube8m-ml-us-east1/2/video/train/train7W.tfrecord"
        string_val: "gs://youtube8m-ml-us-east1/2/video/train/train7X.tfrecord"
        string_val: "gs://youtube8m-ml-us-east1/2/video/train/train7Y.tfrecord"
        string_val: "gs://youtube8m-ml-us-east1/2/video/train/train7Z.tfrecord"
        string_val: "gs://youtube8m-ml-us-east1/2/video/train/train7a.tfrecord"
        string_val: "gs://youtube8m-ml-us-east1/2/video/train/train7b.tfrecord"
        string_val: "gs://youtube8m-ml-us-east1/2/video/train/train7c.tfrecord"
        string_val: "gs://youtube8m-ml-us-east1/2/video/train/train7d.tfrecord"
        string_val: "gs://youtube8m-ml-us-east1/2/video/train/train7e.tfrecord"
        string_val: "gs://youtube8m-ml-us-east1/2/video/train/train7f.tfrecord"
        string_val: "gs://youtube8m-ml-us-east1/2/video/train/train7g.tfrecord"
        string_val: "gs://youtube8m-ml-us-east1/2/video/train/train7h.tfrecord"
        string_val: "gs://youtube8m-ml-us-east1/2/video/train/train7i.tfrecord"
        string_val: "gs://youtube8m-ml-us-east1/2/video/train/train7j.tfrecord"
        string_val: "gs://youtube8m-ml-us-east1/2/video/train/train7k.tfrecord"
        string_val: "gs://youtube8m-ml-us-east1/2/video/train/train7l.tfrecord"
        string_val: "gs://youtube8m-ml-us-east1/2/video/train/train7m.tfrecord"
        string_val: "gs://youtube8m-ml-us-east1/2/video/train/train7n.tfrecord"
        string_val: "gs://youtube8m-ml-us-east1/2/video/train/train7o.tfrecord"
        string_val: "gs://youtube8m-ml-us-east1/2/video/train/train7p.tfrecord"
        string_val: "gs://youtube8m-ml-us-east1/2/video/train/train7q.tfrecord"
        string_val: "gs://youtube8m-ml-us-east1/2/video/train/train7r.tfrecord"
        string_val: "gs://youtube8m-ml-us-east1/2/video/train/train7s.tfrecord"
        string_val: "gs://youtube8m-ml-us-east1/2/video/train/train7t.tfrecord"
        string_val: "gs://youtube8m-ml-us-east1/2/video/train/train7u.tfrecord"
        string_val: "gs://youtube8m-ml-us-east1/2/video/train/train7v.tfrecord"
        string_val: "gs://youtube8m-ml-us-east1/2/video/train/train7w.tfrecord"
        string_val: "gs://youtube8m-ml-us-east1/2/video/train/train7x.tfrecord"
        string_val: "gs://youtube8m-ml-us-east1/2/video/train/train7y.tfrecord"
        string_val: "gs://youtube8m-ml-us-east1/2/video/train/train7z.tfrecord"
        string_val: "gs://youtube8m-ml-us-east1/2/video/train/train80.tfrecord"
        string_val: "gs://youtube8m-ml-us-east1/2/video/train/train81.tfrecord"
        string_val: "gs://youtube8m-ml-us-east1/2/video/train/train82.tfrecord"
        string_val: "gs://youtube8m-ml-us-east1/2/video/train/train83.tfrecord"
        string_val: "gs://youtube8m-ml-us-east1/2/video/train/train84.tfrecord"
        string_val: "gs://youtube8m-ml-us-east1/2/video/train/train85.tfrecord"
        string_val: "gs://youtube8m-ml-us-east1/2/video/train/train86.tfrecord"
        string_val: "gs://youtube8m-ml-us-east1/2/video/train/train87.tfrecord"
        string_val: "gs://youtube8m-ml-us-east1/2/video/train/train88.tfrecord"
        string_val: "gs://youtube8m-ml-us-east1/2/video/train/train89.tfrecord"
        string_val: "gs://youtube8m-ml-us-east1/2/video/train/train8A.tfrecord"
        string_val: "gs://youtube8m-ml-us-east1/2/video/train/train8B.tfrecord"
        string_val: "gs://youtube8m-ml-us-east1/2/video/train/train8C.tfrecord"
        string_val: "gs://youtube8m-ml-us-east1/2/video/train/train8D.tfrecord"
        string_val: "gs://youtube8m-ml-us-east1/2/video/train/train8E.tfrecord"
        string_val: "gs://youtube8m-ml-us-east1/2/video/train/train8F.tfrecord"
        string_val: "gs://youtube8m-ml-us-east1/2/video/train/train8G.tfrecord"
        string_val: "gs://youtube8m-ml-us-east1/2/video/train/train8H.tfrecord"
        string_val: "gs://youtube8m-ml-us-east1/2/video/train/train8I.tfrecord"
        string_val: "gs://youtube8m-ml-us-east1/2/video/train/train8J.tfrecord"
        string_val: "gs://youtube8m-ml-us-east1/2/video/train/train8K.tfrecord"
        string_val: "gs://youtube8m-ml-us-east1/2/video/train/train8L.tfrecord"
        string_val: "gs://youtube8m-ml-us-east1/2/video/train/train8M.tfrecord"
        string_val: "gs://youtube8m-ml-us-east1/2/video/train/train8N.tfrecord"
        string_val: "gs://youtube8m-ml-us-east1/2/video/train/train8O.tfrecord"
        string_val: "gs://youtube8m-ml-us-east1/2/video/train/train8P.tfrecord"
        string_val: "gs://youtube8m-ml-us-east1/2/video/train/train8Q.tfrecord"
        string_val: "gs://youtube8m-ml-us-east1/2/video/train/train8R.tfrecord"
        string_val: "gs://youtube8m-ml-us-east1/2/video/train/train8S.tfrecord"
        string_val: "gs://youtube8m-ml-us-east1/2/video/train/train8T.tfrecord"
        string_val: "gs://youtube8m-ml-us-east1/2/video/train/train8U.tfrecord"
        string_val: "gs://youtube8m-ml-us-east1/2/video/train/train8V.tfrecord"
        string_val: "gs://youtube8m-ml-us-east1/2/video/train/train8W.tfrecord"
        string_val: "gs://youtube8m-ml-us-east1/2/video/train/train8X.tfrecord"
        string_val: "gs://youtube8m-ml-us-east1/2/video/train/train8Y.tfrecord"
        string_val: "gs://youtube8m-ml-us-east1/2/video/train/train8Z.tfrecord"
        string_val: "gs://youtube8m-ml-us-east1/2/video/train/train8a.tfrecord"
        string_val: "gs://youtube8m-ml-us-east1/2/video/train/train8b.tfrecord"
        string_val: "gs://youtube8m-ml-us-east1/2/video/train/train8c.tfrecord"
        string_val: "gs://youtube8m-ml-us-east1/2/video/train/train8d.tfrecord"
        string_val: "gs://youtube8m-ml-us-east1/2/video/train/train8e.tfrecord"
        string_val: "gs://youtube8m-ml-us-east1/2/video/train/train8f.tfrecord"
        string_val: "gs://youtube8m-ml-us-east1/2/video/train/train8g.tfrecord"
        string_val: "gs://youtube8m-ml-us-east1/2/video/train/train8h.tfrecord"
        string_val: "gs://youtube8m-ml-us-east1/2/video/train/train8i.tfrecord"
        string_val: "gs://youtube8m-ml-us-east1/2/video/train/train8j.tfrecord"
        string_val: "gs://youtube8m-ml-us-east1/2/video/train/train8k.tfrecord"
        string_val: "gs://youtube8m-ml-us-east1/2/video/train/train8l.tfrecord"
        string_val: "gs://youtube8m-ml-us-east1/2/video/train/train8m.tfrecord"
        string_val: "gs://youtube8m-ml-us-east1/2/video/train/train8n.tfrecord"
        string_val: "gs://youtube8m-ml-us-east1/2/video/train/train8o.tfrecord"
        string_val: "gs://youtube8m-ml-us-east1/2/video/train/train8p.tfrecord"
        string_val: "gs://youtube8m-ml-us-east1/2/video/train/train8q.tfrecord"
        string_val: "gs://youtube8m-ml-us-east1/2/video/train/train8r.tfrecord"
        string_val: "gs://youtube8m-ml-us-east1/2/video/train/train8s.tfrecord"
        string_val: "gs://youtube8m-ml-us-east1/2/video/train/train8t.tfrecord"
        string_val: "gs://youtube8m-ml-us-east1/2/video/train/train8u.tfrecord"
        string_val: "gs://youtube8m-ml-us-east1/2/video/train/train8v.tfrecord"
        string_val: "gs://youtube8m-ml-us-east1/2/video/train/train8w.tfrecord"
        string_val: "gs://youtube8m-ml-us-east1/2/video/train/train8x.tfrecord"
        string_val: "gs://youtube8m-ml-us-east1/2/video/train/train8y.tfrecord"
        string_val: "gs://youtube8m-ml-us-east1/2/video/train/train8z.tfrecord"
        string_val: "gs://youtube8m-ml-us-east1/2/video/train/train90.tfrecord"
        string_val: "gs://youtube8m-ml-us-east1/2/video/train/train91.tfrecord"
        string_val: "gs://youtube8m-ml-us-east1/2/video/train/train92.tfrecord"
        string_val: "gs://youtube8m-ml-us-east1/2/video/train/train93.tfrecord"
        string_val: "gs://youtube8m-ml-us-east1/2/video/train/train94.tfrecord"
        string_val: "gs://youtube8m-ml-us-east1/2/video/train/train95.tfrecord"
        string_val: "gs://youtube8m-ml-us-east1/2/video/train/train96.tfrecord"
        string_val: "gs://youtube8m-ml-us-east1/2/video/train/train97.tfrecord"
        string_val: "gs://youtube8m-ml-us-east1/2/video/train/train98.tfrecord"
        string_val: "gs://youtube8m-ml-us-east1/2/video/train/train99.tfrecord"
        string_val: "gs://youtube8m-ml-us-east1/2/video/train/train9A.tfrecord"
        string_val: "gs://youtube8m-ml-us-east1/2/video/train/train9B.tfrecord"
        string_val: "gs://youtube8m-ml-us-east1/2/video/train/train9C.tfrecord"
        string_val: "gs://youtube8m-ml-us-east1/2/video/train/train9D.tfrecord"
        string_val: "gs://youtube8m-ml-us-east1/2/video/train/train9E.tfrecord"
        string_val: "gs://youtube8m-ml-us-east1/2/video/train/train9F.tfrecord"
        string_val: "gs://youtube8m-ml-us-east1/2/video/train/train9G.tfrecord"
        string_val: "gs://youtube8m-ml-us-east1/2/video/train/train9H.tfrecord"
        string_val: "gs://youtube8m-ml-us-east1/2/video/train/train9I.tfrecord"
        string_val: "gs://youtube8m-ml-us-east1/2/video/train/train9J.tfrecord"
        string_val: "gs://youtube8m-ml-us-east1/2/video/train/train9K.tfrecord"
        string_val: "gs://youtube8m-ml-us-east1/2/video/train/train9L.tfrecord"
        string_val: "gs://youtube8m-ml-us-east1/2/video/train/train9M.tfrecord"
        string_val: "gs://youtube8m-ml-us-east1/2/video/train/train9N.tfrecord"
        string_val: "gs://youtube8m-ml-us-east1/2/video/train/train9O.tfrecord"
        string_val: "gs://youtube8m-ml-us-east1/2/video/train/train9P.tfrecord"
        string_val: "gs://youtube8m-ml-us-east1/2/video/train/train9Q.tfrecord"
        string_val: "gs://youtube8m-ml-us-east1/2/video/train/train9R.tfrecord"
        string_val: "gs://youtube8m-ml-us-east1/2/video/train/train9S.tfrecord"
        string_val: "gs://youtube8m-ml-us-east1/2/video/train/train9T.tfrecord"
        string_val: "gs://youtube8m-ml-us-east1/2/video/train/train9U.tfrecord"
        string_val: "gs://youtube8m-ml-us-east1/2/video/train/train9V.tfrecord"
        string_val: "gs://youtube8m-ml-us-east1/2/video/train/train9W.tfrecord"
        string_val: "gs://youtube8m-ml-us-east1/2/video/train/train9X.tfrecord"
        string_val: "gs://youtube8m-ml-us-east1/2/video/train/train9Y.tfrecord"
        string_val: "gs://youtube8m-ml-us-east1/2/video/train/train9Z.tfrecord"
        string_val: "gs://youtube8m-ml-us-east1/2/video/train/train9a.tfrecord"
        string_val: "gs://youtube8m-ml-us-east1/2/video/train/train9b.tfrecord"
        string_val: "gs://youtube8m-ml-us-east1/2/video/train/train9c.tfrecord"
        string_val: "gs://youtube8m-ml-us-east1/2/video/train/train9d.tfrecord"
        string_val: "gs://youtube8m-ml-us-east1/2/video/train/train9e.tfrecord"
        string_val: "gs://youtube8m-ml-us-east1/2/video/train/train9f.tfrecord"
        string_val: "gs://youtube8m-ml-us-east1/2/video/train/train9g.tfrecord"
        string_val: "gs://youtube8m-ml-us-east1/2/video/train/train9h.tfrecord"
        string_val: "gs://youtube8m-ml-us-east1/2/video/train/train9i.tfrecord"
        string_val: "gs://youtube8m-ml-us-east1/2/video/train/train9j.tfrecord"
        string_val: "gs://youtube8m-ml-us-east1/2/video/train/train9k.tfrecord"
        string_val: "gs://youtube8m-ml-us-east1/2/video/train/train9l.tfrecord"
        string_val: "gs://youtube8m-ml-us-east1/2/video/train/train9m.tfrecord"
        string_val: "gs://youtube8m-ml-us-east1/2/video/train/train9n.tfrecord"
        string_val: "gs://youtube8m-ml-us-east1/2/video/train/train9o.tfrecord"
        string_val: "gs://youtube8m-ml-us-east1/2/video/train/train9p.tfrecord"
        string_val: "gs://youtube8m-ml-us-east1/2/video/train/train9q.tfrecord"
        string_val: "gs://youtube8m-ml-us-east1/2/video/train/train9r.tfrecord"
        string_val: "gs://youtube8m-ml-us-east1/2/video/train/train9s.tfrecord"
        string_val: "gs://youtube8m-ml-us-east1/2/video/train/train9t.tfrecord"
        string_val: "gs://youtube8m-ml-us-east1/2/video/train/train9u.tfrecord"
        string_val: "gs://youtube8m-ml-us-east1/2/video/train/train9v.tfrecord"
        string_val: "gs://youtube8m-ml-us-east1/2/video/train/train9w.tfrecord"
        string_val: "gs://youtube8m-ml-us-east1/2/video/train/train9x.tfrecord"
        string_val: "gs://youtube8m-ml-us-east1/2/video/train/train9y.tfrecord"
        string_val: "gs://youtube8m-ml-us-east1/2/video/train/train9z.tfrecord"
        string_val: "gs://youtube8m-ml-us-east1/2/video/train/trainA0.tfrecord"
        string_val: "gs://youtube8m-ml-us-east1/2/video/train/trainA1.tfrecord"
        string_val: "gs://youtube8m-ml-us-east1/2/video/train/trainA2.tfrecord"
        string_val: "gs://youtube8m-ml-us-east1/2/video/train/trainA3.tfrecord"
        string_val: "gs://youtube8m-ml-us-east1/2/video/train/trainA4.tfrecord"
        string_val: "gs://youtube8m-ml-us-east1/2/video/train/trainA5.tfrecord"
        string_val: "gs://youtube8m-ml-us-east1/2/video/train/trainA6.tfrecord"
        string_val: "gs://youtube8m-ml-us-east1/2/video/train/trainA7.tfrecord"
        string_val: "gs://youtube8m-ml-us-east1/2/video/train/trainA8.tfrecord"
        string_val: "gs://youtube8m-ml-us-east1/2/video/train/trainA9.tfrecord"
        string_val: "gs://youtube8m-ml-us-east1/2/video/train/trainAA.tfrecord"
        string_val: "gs://youtube8m-ml-us-east1/2/video/train/trainAB.tfrecord"
        string_val: "gs://youtube8m-ml-us-east1/2/video/train/trainAC.tfrecord"
        string_val: "gs://youtube8m-ml-us-east1/2/video/train/trainAD.tfrecord"
        string_val: "gs://youtube8m-ml-us-east1/2/video/train/trainAE.tfrecord"
        string_val: "gs://youtube8m-ml-us-east1/2/video/train/trainAF.tfrecord"
        string_val: "gs://youtube8m-ml-us-east1/2/video/train/trainAG.tfrecord"
        string_val: "gs://youtube8m-ml-us-east1/2/video/train/trainAH.tfrecord"
        string_val: "gs://youtube8m-ml-us-east1/2/video/train/trainAI.tfrecord"
        string_val: "gs://youtube8m-ml-us-east1/2/video/train/trainAJ.tfrecord"
        string_val: "gs://youtube8m-ml-us-east1/2/video/train/trainAK.tfrecord"
        string_val: "gs://youtube8m-ml-us-east1/2/video/train/trainAL.tfrecord"
        string_val: "gs://youtube8m-ml-us-east1/2/video/train/trainAM.tfrecord"
        string_val: "gs://youtube8m-ml-us-east1/2/video/train/trainAN.tfrecord"
        string_val: "gs://youtube8m-ml-us-east1/2/video/train/trainAO.tfrecord"
        string_val: "gs://youtube8m-ml-us-east1/2/video/train/trainAP.tfrecord"
        string_val: "gs://youtube8m-ml-us-east1/2/video/train/trainAQ.tfrecord"
        string_val: "gs://youtube8m-ml-us-east1/2/video/train/trainAR.tfrecord"
        string_val: "gs://youtube8m-ml-us-east1/2/video/train/trainAS.tfrecord"
        string_val: "gs://youtube8m-ml-us-east1/2/video/train/trainAT.tfrecord"
        string_val: "gs://youtube8m-ml-us-east1/2/video/train/trainAU.tfrecord"
        string_val: "gs://youtube8m-ml-us-east1/2/video/train/trainAV.tfrecord"
        string_val: "gs://youtube8m-ml-us-east1/2/video/train/trainAW.tfrecord"
        string_val: "gs://youtube8m-ml-us-east1/2/video/train/trainAX.tfrecord"
        string_val: "gs://youtube8m-ml-us-east1/2/video/train/trainAY.tfrecord"
        string_val: "gs://youtube8m-ml-us-east1/2/video/train/trainAZ.tfrecord"
        string_val: "gs://youtube8m-ml-us-east1/2/video/train/trainAa.tfrecord"
        string_val: "gs://youtube8m-ml-us-east1/2/video/train/trainAb.tfrecord"
        string_val: "gs://youtube8m-ml-us-east1/2/video/train/trainAc.tfrecord"
        string_val: "gs://youtube8m-ml-us-east1/2/video/train/trainAd.tfrecord"
        string_val: "gs://youtube8m-ml-us-east1/2/video/train/trainAe.tfrecord"
        string_val: "gs://youtube8m-ml-us-east1/2/video/train/trainAf.tfrecord"
        string_val: "gs://youtube8m-ml-us-east1/2/video/train/trainAg.tfrecord"
        string_val: "gs://youtube8m-ml-us-east1/2/video/train/trainAh.tfrecord"
        string_val: "gs://youtube8m-ml-us-east1/2/video/train/trainAi.tfrecord"
        string_val: "gs://youtube8m-ml-us-east1/2/video/train/trainAj.tfrecord"
        string_val: "gs://youtube8m-ml-us-east1/2/video/train/trainAk.tfrecord"
        string_val: "gs://youtube8m-ml-us-east1/2/video/train/trainAl.tfrecord"
        string_val: "gs://youtube8m-ml-us-east1/2/video/train/trainAm.tfrecord"
        string_val: "gs://youtube8m-ml-us-east1/2/video/train/trainAn.tfrecord"
        string_val: "gs://youtube8m-ml-us-east1/2/video/train/trainAo.tfrecord"
        string_val: "gs://youtube8m-ml-us-east1/2/video/train/trainAp.tfrecord"
        string_val: "gs://youtube8m-ml-us-east1/2/video/train/trainAq.tfrecord"
        string_val: "gs://youtube8m-ml-us-east1/2/video/train/trainAr.tfrecord"
        string_val: "gs://youtube8m-ml-us-east1/2/video/train/trainAs.tfrecord"
        string_val: "gs://youtube8m-ml-us-east1/2/video/train/trainAt.tfrecord"
        string_val: "gs://youtube8m-ml-us-east1/2/video/train/trainAu.tfrecord"
        string_val: "gs://youtube8m-ml-us-east1/2/video/train/trainAv.tfrecord"
        string_val: "gs://youtube8m-ml-us-east1/2/video/train/trainAw.tfrecord"
        string_val: "gs://youtube8m-ml-us-east1/2/video/train/trainAx.tfrecord"
        string_val: "gs://youtube8m-ml-us-east1/2/video/train/trainAy.tfrecord"
        string_val: "gs://youtube8m-ml-us-east1/2/video/train/trainAz.tfrecord"
        string_val: "gs://youtube8m-ml-us-east1/2/video/train/trainB0.tfrecord"
        string_val: "gs://youtube8m-ml-us-east1/2/video/train/trainB1.tfrecord"
        string_val: "gs://youtube8m-ml-us-east1/2/video/train/trainB2.tfrecord"
        string_val: "gs://youtube8m-ml-us-east1/2/video/train/trainB3.tfrecord"
        string_val: "gs://youtube8m-ml-us-east1/2/video/train/trainB4.tfrecord"
        string_val: "gs://youtube8m-ml-us-east1/2/video/train/trainB5.tfrecord"
        string_val: "gs://youtube8m-ml-us-east1/2/video/train/trainB6.tfrecord"
        string_val: "gs://youtube8m-ml-us-east1/2/video/train/trainB7.tfrecord"
        string_val: "gs://youtube8m-ml-us-east1/2/video/train/trainB8.tfrecord"
        string_val: "gs://youtube8m-ml-us-east1/2/video/train/trainB9.tfrecord"
        string_val: "gs://youtube8m-ml-us-east1/2/video/train/trainBA.tfrecord"
        string_val: "gs://youtube8m-ml-us-east1/2/video/train/trainBB.tfrecord"
        string_val: "gs://youtube8m-ml-us-east1/2/video/train/trainBC.tfrecord"
        string_val: "gs://youtube8m-ml-us-east1/2/video/train/trainBD.tfrecord"
        string_val: "gs://youtube8m-ml-us-east1/2/video/train/trainBE.tfrecord"
        string_val: "gs://youtube8m-ml-us-east1/2/video/train/trainBF.tfrecord"
        string_val: "gs://youtube8m-ml-us-east1/2/video/train/trainBG.tfrecord"
        string_val: "gs://youtube8m-ml-us-east1/2/video/train/trainBH.tfrecord"
        string_val: "gs://youtube8m-ml-us-east1/2/video/train/trainBI.tfrecord"
        string_val: "gs://youtube8m-ml-us-east1/2/video/train/trainBJ.tfrecord"
        string_val: "gs://youtube8m-ml-us-east1/2/video/train/trainBK.tfrecord"
        string_val: "gs://youtube8m-ml-us-east1/2/video/train/trainBL.tfrecord"
        string_val: "gs://youtube8m-ml-us-east1/2/video/train/trainBM.tfrecord"
        string_val: "gs://youtube8m-ml-us-east1/2/video/train/trainBN.tfrecord"
        string_val: "gs://youtube8m-ml-us-east1/2/video/train/trainBO.tfrecord"
        string_val: "gs://youtube8m-ml-us-east1/2/video/train/trainBP.tfrecord"
        string_val: "gs://youtube8m-ml-us-east1/2/video/train/trainBQ.tfrecord"
        string_val: "gs://youtube8m-ml-us-east1/2/video/train/trainBR.tfrecord"
        string_val: "gs://youtube8m-ml-us-east1/2/video/train/trainBS.tfrecord"
        string_val: "gs://youtube8m-ml-us-east1/2/video/train/trainBT.tfrecord"
        string_val: "gs://youtube8m-ml-us-east1/2/video/train/trainBU.tfrecord"
        string_val: "gs://youtube8m-ml-us-east1/2/video/train/trainBV.tfrecord"
        string_val: "gs://youtube8m-ml-us-east1/2/video/train/trainBW.tfrecord"
        string_val: "gs://youtube8m-ml-us-east1/2/video/train/trainBX.tfrecord"
        string_val: "gs://youtube8m-ml-us-east1/2/video/train/trainBY.tfrecord"
        string_val: "gs://youtube8m-ml-us-east1/2/video/train/trainBZ.tfrecord"
        string_val: "gs://youtube8m-ml-us-east1/2/video/train/trainBa.tfrecord"
        string_val: "gs://youtube8m-ml-us-east1/2/video/train/trainBb.tfrecord"
        string_val: "gs://youtube8m-ml-us-east1/2/video/train/trainBc.tfrecord"
        string_val: "gs://youtube8m-ml-us-east1/2/video/train/trainBd.tfrecord"
        string_val: "gs://youtube8m-ml-us-east1/2/video/train/trainBe.tfrecord"
        string_val: "gs://youtube8m-ml-us-east1/2/video/train/trainBf.tfrecord"
        string_val: "gs://youtube8m-ml-us-east1/2/video/train/trainBg.tfrecord"
        string_val: "gs://youtube8m-ml-us-east1/2/video/train/trainBh.tfrecord"
        string_val: "gs://youtube8m-ml-us-east1/2/video/train/trainBi.tfrecord"
        string_val: "gs://youtube8m-ml-us-east1/2/video/train/trainBj.tfrecord"
        string_val: "gs://youtube8m-ml-us-east1/2/video/train/trainBk.tfrecord"
        string_val: "gs://youtube8m-ml-us-east1/2/video/train/trainBl.tfrecord"
        string_val: "gs://youtube8m-ml-us-east1/2/video/train/trainBm.tfrecord"
        string_val: "gs://youtube8m-ml-us-east1/2/video/train/trainBn.tfrecord"
        string_val: "gs://youtube8m-ml-us-east1/2/video/train/trainBo.tfrecord"
        string_val: "gs://youtube8m-ml-us-east1/2/video/train/trainBp.tfrecord"
        string_val: "gs://youtube8m-ml-us-east1/2/video/train/trainBq.tfrecord"
        string_val: "gs://youtube8m-ml-us-east1/2/video/train/trainBr.tfrecord"
        string_val: "gs://youtube8m-ml-us-east1/2/video/train/trainBs.tfrecord"
        string_val: "gs://youtube8m-ml-us-east1/2/video/train/trainBt.tfrecord"
        string_val: "gs://youtube8m-ml-us-east1/2/video/train/trainBu.tfrecord"
        string_val: "gs://youtube8m-ml-us-east1/2/video/train/trainBv.tfrecord"
        string_val: "gs://youtube8m-ml-us-east1/2/video/train/trainBw.tfrecord"
        string_val: "gs://youtube8m-ml-us-east1/2/video/train/trainBx.tfrecord"
        string_val: "gs://youtube8m-ml-us-east1/2/video/train/trainBy.tfrecord"
        string_val: "gs://youtube8m-ml-us-east1/2/video/train/trainBz.tfrecord"
        string_val: "gs://youtube8m-ml-us-east1/2/video/train/trainC0.tfrecord"
        string_val: "gs://youtube8m-ml-us-east1/2/video/train/trainC1.tfrecord"
        string_val: "gs://youtube8m-ml-us-east1/2/video/train/trainC2.tfrecord"
        string_val: "gs://youtube8m-ml-us-east1/2/video/train/trainC3.tfrecord"
        string_val: "gs://youtube8m-ml-us-east1/2/video/train/trainC4.tfrecord"
        string_val: "gs://youtube8m-ml-us-east1/2/video/train/trainC5.tfrecord"
        string_val: "gs://youtube8m-ml-us-east1/2/video/train/trainC6.tfrecord"
        string_val: "gs://youtube8m-ml-us-east1/2/video/train/trainC7.tfrecord"
        string_val: "gs://youtube8m-ml-us-east1/2/video/train/trainC8.tfrecord"
        string_val: "gs://youtube8m-ml-us-east1/2/video/train/trainC9.tfrecord"
        string_val: "gs://youtube8m-ml-us-east1/2/video/train/trainCA.tfrecord"
        string_val: "gs://youtube8m-ml-us-east1/2/video/train/trainCB.tfrecord"
        string_val: "gs://youtube8m-ml-us-east1/2/video/train/trainCC.tfrecord"
        string_val: "gs://youtube8m-ml-us-east1/2/video/train/trainCD.tfrecord"
        string_val: "gs://youtube8m-ml-us-east1/2/video/train/trainCE.tfrecord"
        string_val: "gs://youtube8m-ml-us-east1/2/video/train/trainCF.tfrecord"
        string_val: "gs://youtube8m-ml-us-east1/2/video/train/trainCG.tfrecord"
        string_val: "gs://youtube8m-ml-us-east1/2/video/train/trainCH.tfrecord"
        string_val: "gs://youtube8m-ml-us-east1/2/video/train/trainCI.tfrecord"
        string_val: "gs://youtube8m-ml-us-east1/2/video/train/trainCJ.tfrecord"
        string_val: "gs://youtube8m-ml-us-east1/2/video/train/trainCK.tfrecord"
        string_val: "gs://youtube8m-ml-us-east1/2/video/train/trainCL.tfrecord"
        string_val: "gs://youtube8m-ml-us-east1/2/video/train/trainCM.tfrecord"
        string_val: "gs://youtube8m-ml-us-east1/2/video/train/trainCN.tfrecord"
        string_val: "gs://youtube8m-ml-us-east1/2/video/train/trainCO.tfrecord"
        string_val: "gs://youtube8m-ml-us-east1/2/video/train/trainCP.tfrecord"
        string_val: "gs://youtube8m-ml-us-east1/2/video/train/trainCQ.tfrecord"
        string_val: "gs://youtube8m-ml-us-east1/2/video/train/trainCR.tfrecord"
        string_val: "gs://youtube8m-ml-us-east1/2/video/train/trainCS.tfrecord"
        string_val: "gs://youtube8m-ml-us-east1/2/video/train/trainCT.tfrecord"
        string_val: "gs://youtube8m-ml-us-east1/2/video/train/trainCU.tfrecord"
        string_val: "gs://youtube8m-ml-us-east1/2/video/train/trainCV.tfrecord"
        string_val: "gs://youtube8m-ml-us-east1/2/video/train/trainCW.tfrecord"
        string_val: "gs://youtube8m-ml-us-east1/2/video/train/trainCX.tfrecord"
        string_val: "gs://youtube8m-ml-us-east1/2/video/train/trainCY.tfrecord"
        string_val: "gs://youtube8m-ml-us-east1/2/video/train/trainCZ.tfrecord"
        string_val: "gs://youtube8m-ml-us-east1/2/video/train/trainCa.tfrecord"
        string_val: "gs://youtube8m-ml-us-east1/2/video/train/trainCb.tfrecord"
        string_val: "gs://youtube8m-ml-us-east1/2/video/train/trainCc.tfrecord"
        string_val: "gs://youtube8m-ml-us-east1/2/video/train/trainCd.tfrecord"
        string_val: "gs://youtube8m-ml-us-east1/2/video/train/trainCe.tfrecord"
        string_val: "gs://youtube8m-ml-us-east1/2/video/train/trainCf.tfrecord"
        string_val: "gs://youtube8m-ml-us-east1/2/video/train/trainCg.tfrecord"
        string_val: "gs://youtube8m-ml-us-east1/2/video/train/trainCh.tfrecord"
        string_val: "gs://youtube8m-ml-us-east1/2/video/train/trainCi.tfrecord"
        string_val: "gs://youtube8m-ml-us-east1/2/video/train/trainCj.tfrecord"
        string_val: "gs://youtube8m-ml-us-east1/2/video/train/trainCk.tfrecord"
        string_val: "gs://youtube8m-ml-us-east1/2/video/train/trainCl.tfrecord"
        string_val: "gs://youtube8m-ml-us-east1/2/video/train/trainCm.tfrecord"
        string_val: "gs://youtube8m-ml-us-east1/2/video/train/trainCn.tfrecord"
        string_val: "gs://youtube8m-ml-us-east1/2/video/train/trainCo.tfrecord"
        string_val: "gs://youtube8m-ml-us-east1/2/video/train/trainCp.tfrecord"
        string_val: "gs://youtube8m-ml-us-east1/2/video/train/trainCq.tfrecord"
        string_val: "gs://youtube8m-ml-us-east1/2/video/train/trainCr.tfrecord"
        string_val: "gs://youtube8m-ml-us-east1/2/video/train/trainCs.tfrecord"
        string_val: "gs://youtube8m-ml-us-east1/2/video/train/trainCt.tfrecord"
        string_val: "gs://youtube8m-ml-us-east1/2/video/train/trainCu.tfrecord"
        string_val: "gs://youtube8m-ml-us-east1/2/video/train/trainCv.tfrecord"
        string_val: "gs://youtube8m-ml-us-east1/2/video/train/trainCw.tfrecord"
        string_val: "gs://youtube8m-ml-us-east1/2/video/train/trainCx.tfrecord"
        string_val: "gs://youtube8m-ml-us-east1/2/video/train/trainCy.tfrecord"
        string_val: "gs://youtube8m-ml-us-east1/2/video/train/trainCz.tfrecord"
        string_val: "gs://youtube8m-ml-us-east1/2/video/train/trainD0.tfrecord"
        string_val: "gs://youtube8m-ml-us-east1/2/video/train/trainD1.tfrecord"
        string_val: "gs://youtube8m-ml-us-east1/2/video/train/trainD2.tfrecord"
        string_val: "gs://youtube8m-ml-us-east1/2/video/train/trainD3.tfrecord"
        string_val: "gs://youtube8m-ml-us-east1/2/video/train/trainD4.tfrecord"
        string_val: "gs://youtube8m-ml-us-east1/2/video/train/trainD5.tfrecord"
        string_val: "gs://youtube8m-ml-us-east1/2/video/train/trainD6.tfrecord"
        string_val: "gs://youtube8m-ml-us-east1/2/video/train/trainD7.tfrecord"
        string_val: "gs://youtube8m-ml-us-east1/2/video/train/trainD8.tfrecord"
        string_val: "gs://youtube8m-ml-us-east1/2/video/train/trainD9.tfrecord"
        string_val: "gs://youtube8m-ml-us-east1/2/video/train/trainDA.tfrecord"
        string_val: "gs://youtube8m-ml-us-east1/2/video/train/trainDB.tfrecord"
        string_val: "gs://youtube8m-ml-us-east1/2/video/train/trainDC.tfrecord"
        string_val: "gs://youtube8m-ml-us-east1/2/video/train/trainDD.tfrecord"
        string_val: "gs://youtube8m-ml-us-east1/2/video/train/trainDE.tfrecord"
        string_val: "gs://youtube8m-ml-us-east1/2/video/train/trainDF.tfrecord"
        string_val: "gs://youtube8m-ml-us-east1/2/video/train/trainDG.tfrecord"
        string_val: "gs://youtube8m-ml-us-east1/2/video/train/trainDH.tfrecord"
        string_val: "gs://youtube8m-ml-us-east1/2/video/train/trainDI.tfrecord"
        string_val: "gs://youtube8m-ml-us-east1/2/video/train/trainDJ.tfrecord"
        string_val: "gs://youtube8m-ml-us-east1/2/video/train/trainDK.tfrecord"
        string_val: "gs://youtube8m-ml-us-east1/2/video/train/trainDL.tfrecord"
        string_val: "gs://youtube8m-ml-us-east1/2/video/train/trainDM.tfrecord"
        string_val: "gs://youtube8m-ml-us-east1/2/video/train/trainDN.tfrecord"
        string_val: "gs://youtube8m-ml-us-east1/2/video/train/trainDO.tfrecord"
        string_val: "gs://youtube8m-ml-us-east1/2/video/train/trainDP.tfrecord"
        string_val: "gs://youtube8m-ml-us-east1/2/video/train/trainDQ.tfrecord"
        string_val: "gs://youtube8m-ml-us-east1/2/video/train/trainDR.tfrecord"
        string_val: "gs://youtube8m-ml-us-east1/2/video/train/trainDS.tfrecord"
        string_val: "gs://youtube8m-ml-us-east1/2/video/train/trainDT.tfrecord"
        string_val: "gs://youtube8m-ml-us-east1/2/video/train/trainDU.tfrecord"
        string_val: "gs://youtube8m-ml-us-east1/2/video/train/trainDV.tfrecord"
        string_val: "gs://youtube8m-ml-us-east1/2/video/train/trainDW.tfrecord"
        string_val: "gs://youtube8m-ml-us-east1/2/video/train/trainDX.tfrecord"
        string_val: "gs://youtube8m-ml-us-east1/2/video/train/trainDY.tfrecord"
        string_val: "gs://youtube8m-ml-us-east1/2/video/train/trainDZ.tfrecord"
        string_val: "gs://youtube8m-ml-us-east1/2/video/train/trainDa.tfrecord"
        string_val: "gs://youtube8m-ml-us-east1/2/video/train/trainDb.tfrecord"
        string_val: "gs://youtube8m-ml-us-east1/2/video/train/trainDc.tfrecord"
        string_val: "gs://youtube8m-ml-us-east1/2/video/train/trainDd.tfrecord"
        string_val: "gs://youtube8m-ml-us-east1/2/video/train/trainDe.tfrecord"
        string_val: "gs://youtube8m-ml-us-east1/2/video/train/trainDf.tfrecord"
        string_val: "gs://youtube8m-ml-us-east1/2/video/train/trainDg.tfrecord"
        string_val: "gs://youtube8m-ml-us-east1/2/video/train/trainDh.tfrecord"
        string_val: "gs://youtube8m-ml-us-east1/2/video/train/trainDi.tfrecord"
        string_val: "gs://youtube8m-ml-us-east1/2/video/train/trainDj.tfrecord"
        string_val: "gs://youtube8m-ml-us-east1/2/video/train/trainDk.tfrecord"
        string_val: "gs://youtube8m-ml-us-east1/2/video/train/trainDl.tfrecord"
        string_val: "gs://youtube8m-ml-us-east1/2/video/train/trainDm.tfrecord"
        string_val: "gs://youtube8m-ml-us-east1/2/video/train/trainDn.tfrecord"
        string_val: "gs://youtube8m-ml-us-east1/2/video/train/trainDo.tfrecord"
        string_val: "gs://youtube8m-ml-us-east1/2/video/train/trainDp.tfrecord"
        string_val: "gs://youtube8m-ml-us-east1/2/video/train/trainDq.tfrecord"
        string_val: "gs://youtube8m-ml-us-east1/2/video/train/trainDr.tfrecord"
        string_val: "gs://youtube8m-ml-us-east1/2/video/train/trainDs.tfrecord"
        string_val: "gs://youtube8m-ml-us-east1/2/video/train/trainDt.tfrecord"
        string_val: "gs://youtube8m-ml-us-east1/2/video/train/trainDu.tfrecord"
        string_val: "gs://youtube8m-ml-us-east1/2/video/train/trainDv.tfrecord"
        string_val: "gs://youtube8m-ml-us-east1/2/video/train/trainDw.tfrecord"
        string_val: "gs://youtube8m-ml-us-east1/2/video/train/trainDx.tfrecord"
        string_val: "gs://youtube8m-ml-us-east1/2/video/train/trainDy.tfrecord"
        string_val: "gs://youtube8m-ml-us-east1/2/video/train/trainDz.tfrecord"
        string_val: "gs://youtube8m-ml-us-east1/2/video/train/trainE0.tfrecord"
        string_val: "gs://youtube8m-ml-us-east1/2/video/train/trainE1.tfrecord"
        string_val: "gs://youtube8m-ml-us-east1/2/video/train/trainE2.tfrecord"
        string_val: "gs://youtube8m-ml-us-east1/2/video/train/trainE3.tfrecord"
        string_val: "gs://youtube8m-ml-us-east1/2/video/train/trainE4.tfrecord"
        string_val: "gs://youtube8m-ml-us-east1/2/video/train/trainE5.tfrecord"
        string_val: "gs://youtube8m-ml-us-east1/2/video/train/trainE6.tfrecord"
        string_val: "gs://youtube8m-ml-us-east1/2/video/train/trainE7.tfrecord"
        string_val: "gs://youtube8m-ml-us-east1/2/video/train/trainE8.tfrecord"
        string_val: "gs://youtube8m-ml-us-east1/2/video/train/trainE9.tfrecord"
        string_val: "gs://youtube8m-ml-us-east1/2/video/train/trainEA.tfrecord"
        string_val: "gs://youtube8m-ml-us-east1/2/video/train/trainEB.tfrecord"
        string_val: "gs://youtube8m-ml-us-east1/2/video/train/trainEC.tfrecord"
        string_val: "gs://youtube8m-ml-us-east1/2/video/train/trainED.tfrecord"
        string_val: "gs://youtube8m-ml-us-east1/2/video/train/trainEE.tfrecord"
        string_val: "gs://youtube8m-ml-us-east1/2/video/train/trainEF.tfrecord"
        string_val: "gs://youtube8m-ml-us-east1/2/video/train/trainEG.tfrecord"
        string_val: "gs://youtube8m-ml-us-east1/2/video/train/trainEH.tfrecord"
        string_val: "gs://youtube8m-ml-us-east1/2/video/train/trainEI.tfrecord"
        string_val: "gs://youtube8m-ml-us-east1/2/video/train/trainEJ.tfrecord"
        string_val: "gs://youtube8m-ml-us-east1/2/video/train/trainEK.tfrecord"
        string_val: "gs://youtube8m-ml-us-east1/2/video/train/trainEL.tfrecord"
        string_val: "gs://youtube8m-ml-us-east1/2/video/train/trainEM.tfrecord"
        string_val: "gs://youtube8m-ml-us-east1/2/video/train/trainEN.tfrecord"
        string_val: "gs://youtube8m-ml-us-east1/2/video/train/trainEO.tfrecord"
        string_val: "gs://youtube8m-ml-us-east1/2/video/train/trainEP.tfrecord"
        string_val: "gs://youtube8m-ml-us-east1/2/video/train/trainEQ.tfrecord"
        string_val: "gs://youtube8m-ml-us-east1/2/video/train/trainER.tfrecord"
        string_val: "gs://youtube8m-ml-us-east1/2/video/train/trainES.tfrecord"
        string_val: "gs://youtube8m-ml-us-east1/2/video/train/trainET.tfrecord"
        string_val: "gs://youtube8m-ml-us-east1/2/video/train/trainEU.tfrecord"
        string_val: "gs://youtube8m-ml-us-east1/2/video/train/trainEV.tfrecord"
        string_val: "gs://youtube8m-ml-us-east1/2/video/train/trainEW.tfrecord"
        string_val: "gs://youtube8m-ml-us-east1/2/video/train/trainEX.tfrecord"
        string_val: "gs://youtube8m-ml-us-east1/2/video/train/trainEY.tfrecord"
        string_val: "gs://youtube8m-ml-us-east1/2/video/train/trainEZ.tfrecord"
        string_val: "gs://youtube8m-ml-us-east1/2/video/train/trainEa.tfrecord"
        string_val: "gs://youtube8m-ml-us-east1/2/video/train/trainEb.tfrecord"
        string_val: "gs://youtube8m-ml-us-east1/2/video/train/trainEc.tfrecord"
        string_val: "gs://youtube8m-ml-us-east1/2/video/train/trainEd.tfrecord"
        string_val: "gs://youtube8m-ml-us-east1/2/video/train/trainEe.tfrecord"
        string_val: "gs://youtube8m-ml-us-east1/2/video/train/trainEf.tfrecord"
        string_val: "gs://youtube8m-ml-us-east1/2/video/train/trainEg.tfrecord"
        string_val: "gs://youtube8m-ml-us-east1/2/video/train/trainEh.tfrecord"
        string_val: "gs://youtube8m-ml-us-east1/2/video/train/trainEi.tfrecord"
        string_val: "gs://youtube8m-ml-us-east1/2/video/train/trainEj.tfrecord"
        string_val: "gs://youtube8m-ml-us-east1/2/video/train/trainEk.tfrecord"
        string_val: "gs://youtube8m-ml-us-east1/2/video/train/trainEl.tfrecord"
        string_val: "gs://youtube8m-ml-us-east1/2/video/train/trainEm.tfrecord"
        string_val: "gs://youtube8m-ml-us-east1/2/video/train/trainEn.tfrecord"
        string_val: "gs://youtube8m-ml-us-east1/2/video/train/trainEo.tfrecord"
        string_val: "gs://youtube8m-ml-us-east1/2/video/train/trainEp.tfrecord"
        string_val: "gs://youtube8m-ml-us-east1/2/video/train/trainEq.tfrecord"
        string_val: "gs://youtube8m-ml-us-east1/2/video/train/trainEr.tfrecord"
        string_val: "gs://youtube8m-ml-us-east1/2/video/train/trainEs.tfrecord"
        string_val: "gs://youtube8m-ml-us-east1/2/video/train/trainEt.tfrecord"
        string_val: "gs://youtube8m-ml-us-east1/2/video/train/trainEu.tfrecord"
        string_val: "gs://youtube8m-ml-us-east1/2/video/train/trainEv.tfrecord"
        string_val: "gs://youtube8m-ml-us-east1/2/video/train/trainEw.tfrecord"
        string_val: "gs://youtube8m-ml-us-east1/2/video/train/trainEx.tfrecord"
        string_val: "gs://youtube8m-ml-us-east1/2/video/train/trainEy.tfrecord"
        string_val: "gs://youtube8m-ml-us-east1/2/video/train/trainEz.tfrecord"
        string_val: "gs://youtube8m-ml-us-east1/2/video/train/trainF0.tfrecord"
        string_val: "gs://youtube8m-ml-us-east1/2/video/train/trainF1.tfrecord"
        string_val: "gs://youtube8m-ml-us-east1/2/video/train/trainF2.tfrecord"
        string_val: "gs://youtube8m-ml-us-east1/2/video/train/trainF3.tfrecord"
        string_val: "gs://youtube8m-ml-us-east1/2/video/train/trainF4.tfrecord"
        string_val: "gs://youtube8m-ml-us-east1/2/video/train/trainF5.tfrecord"
        string_val: "gs://youtube8m-ml-us-east1/2/video/train/trainF6.tfrecord"
        string_val: "gs://youtube8m-ml-us-east1/2/video/train/trainF7.tfrecord"
        string_val: "gs://youtube8m-ml-us-east1/2/video/train/trainF8.tfrecord"
        string_val: "gs://youtube8m-ml-us-east1/2/video/train/trainF9.tfrecord"
        string_val: "gs://youtube8m-ml-us-east1/2/video/train/trainFA.tfrecord"
        string_val: "gs://youtube8m-ml-us-east1/2/video/train/trainFB.tfrecord"
        string_val: "gs://youtube8m-ml-us-east1/2/video/train/trainFC.tfrecord"
        string_val: "gs://youtube8m-ml-us-east1/2/video/train/trainFD.tfrecord"
        string_val: "gs://youtube8m-ml-us-east1/2/video/train/trainFE.tfrecord"
        string_val: "gs://youtube8m-ml-us-east1/2/video/train/trainFF.tfrecord"
        string_val: "gs://youtube8m-ml-us-east1/2/video/train/trainFG.tfrecord"
        string_val: "gs://youtube8m-ml-us-east1/2/video/train/trainFH.tfrecord"
        string_val: "gs://youtube8m-ml-us-east1/2/video/train/trainFI.tfrecord"
        string_val: "gs://youtube8m-ml-us-east1/2/video/train/trainFJ.tfrecord"
        string_val: "gs://youtube8m-ml-us-east1/2/video/train/trainFK.tfrecord"
        string_val: "gs://youtube8m-ml-us-east1/2/video/train/trainFL.tfrecord"
        string_val: "gs://youtube8m-ml-us-east1/2/video/train/trainFM.tfrecord"
        string_val: "gs://youtube8m-ml-us-east1/2/video/train/trainFN.tfrecord"
        string_val: "gs://youtube8m-ml-us-east1/2/video/train/trainFO.tfrecord"
        string_val: "gs://youtube8m-ml-us-east1/2/video/train/trainFP.tfrecord"
        string_val: "gs://youtube8m-ml-us-east1/2/video/train/trainFQ.tfrecord"
        string_val: "gs://youtube8m-ml-us-east1/2/video/train/trainFR.tfrecord"
        string_val: "gs://youtube8m-ml-us-east1/2/video/train/trainFS.tfrecord"
        string_val: "gs://youtube8m-ml-us-east1/2/video/train/trainFT.tfrecord"
        string_val: "gs://youtube8m-ml-us-east1/2/video/train/trainFU.tfrecord"
        string_val: "gs://youtube8m-ml-us-east1/2/video/train/trainFV.tfrecord"
        string_val: "gs://youtube8m-ml-us-east1/2/video/train/trainFW.tfrecord"
        string_val: "gs://youtube8m-ml-us-east1/2/video/train/trainFX.tfrecord"
        string_val: "gs://youtube8m-ml-us-east1/2/video/train/trainFY.tfrecord"
        string_val: "gs://youtube8m-ml-us-east1/2/video/train/trainFZ.tfrecord"
        string_val: "gs://youtube8m-ml-us-east1/2/video/train/trainFa.tfrecord"
        string_val: "gs://youtube8m-ml-us-east1/2/video/train/trainFb.tfrecord"
        string_val: "gs://youtube8m-ml-us-east1/2/video/train/trainFc.tfrecord"
        string_val: "gs://youtube8m-ml-us-east1/2/video/train/trainFd.tfrecord"
        string_val: "gs://youtube8m-ml-us-east1/2/video/train/trainFe.tfrecord"
        string_val: "gs://youtube8m-ml-us-east1/2/video/train/trainFf.tfrecord"
        string_val: "gs://youtube8m-ml-us-east1/2/video/train/trainFg.tfrecord"
        string_val: "gs://youtube8m-ml-us-east1/2/video/train/trainFh.tfrecord"
        string_val: "gs://youtube8m-ml-us-east1/2/video/train/trainFi.tfrecord"
        string_val: "gs://youtube8m-ml-us-east1/2/video/train/trainFj.tfrecord"
        string_val: "gs://youtube8m-ml-us-east1/2/video/train/trainFk.tfrecord"
        string_val: "gs://youtube8m-ml-us-east1/2/video/train/trainFl.tfrecord"
        string_val: "gs://youtube8m-ml-us-east1/2/video/train/trainFm.tfrecord"
        string_val: "gs://youtube8m-ml-us-east1/2/video/train/trainFn.tfrecord"
        string_val: "gs://youtube8m-ml-us-east1/2/video/train/trainFo.tfrecord"
        string_val: "gs://youtube8m-ml-us-east1/2/video/train/trainFp.tfrecord"
        string_val: "gs://youtube8m-ml-us-east1/2/video/train/trainFq.tfrecord"
        string_val: "gs://youtube8m-ml-us-east1/2/video/train/trainFr.tfrecord"
        string_val: "gs://youtube8m-ml-us-east1/2/video/train/trainFs.tfrecord"
        string_val: "gs://youtube8m-ml-us-east1/2/video/train/trainFt.tfrecord"
        string_val: "gs://youtube8m-ml-us-east1/2/video/train/trainFu.tfrecord"
        string_val: "gs://youtube8m-ml-us-east1/2/video/train/trainFv.tfrecord"
        string_val: "gs://youtube8m-ml-us-east1/2/video/train/trainFw.tfrecord"
        string_val: "gs://youtube8m-ml-us-east1/2/video/train/trainFx.tfrecord"
        string_val: "gs://youtube8m-ml-us-east1/2/video/train/trainFy.tfrecord"
        string_val: "gs://youtube8m-ml-us-east1/2/video/train/trainFz.tfrecord"
        string_val: "gs://youtube8m-ml-us-east1/2/video/train/trainG0.tfrecord"
        string_val: "gs://youtube8m-ml-us-east1/2/video/train/trainG1.tfrecord"
        string_val: "gs://youtube8m-ml-us-east1/2/video/train/trainG2.tfrecord"
        string_val: "gs://youtube8m-ml-us-east1/2/video/train/trainG3.tfrecord"
        string_val: "gs://youtube8m-ml-us-east1/2/video/train/trainG4.tfrecord"
        string_val: "gs://youtube8m-ml-us-east1/2/video/train/trainG5.tfrecord"
        string_val: "gs://youtube8m-ml-us-east1/2/video/train/trainG6.tfrecord"
        string_val: "gs://youtube8m-ml-us-east1/2/video/train/trainG7.tfrecord"
        string_val: "gs://youtube8m-ml-us-east1/2/video/train/trainG8.tfrecord"
        string_val: "gs://youtube8m-ml-us-east1/2/video/train/trainG9.tfrecord"
        string_val: "gs://youtube8m-ml-us-east1/2/video/train/trainGA.tfrecord"
        string_val: "gs://youtube8m-ml-us-east1/2/video/train/trainGB.tfrecord"
        string_val: "gs://youtube8m-ml-us-east1/2/video/train/trainGC.tfrecord"
        string_val: "gs://youtube8m-ml-us-east1/2/video/train/trainGD.tfrecord"
        string_val: "gs://youtube8m-ml-us-east1/2/video/train/trainGE.tfrecord"
        string_val: "gs://youtube8m-ml-us-east1/2/video/train/trainGF.tfrecord"
        string_val: "gs://youtube8m-ml-us-east1/2/video/train/trainGG.tfrecord"
        string_val: "gs://youtube8m-ml-us-east1/2/video/train/trainGH.tfrecord"
        string_val: "gs://youtube8m-ml-us-east1/2/video/train/trainGI.tfrecord"
        string_val: "gs://youtube8m-ml-us-east1/2/video/train/trainGJ.tfrecord"
        string_val: "gs://youtube8m-ml-us-east1/2/video/train/trainGK.tfrecord"
        string_val: "gs://youtube8m-ml-us-east1/2/video/train/trainGL.tfrecord"
        string_val: "gs://youtube8m-ml-us-east1/2/video/train/trainGM.tfrecord"
        string_val: "gs://youtube8m-ml-us-east1/2/video/train/trainGN.tfrecord"
        string_val: "gs://youtube8m-ml-us-east1/2/video/train/trainGO.tfrecord"
        string_val: "gs://youtube8m-ml-us-east1/2/video/train/trainGP.tfrecord"
        string_val: "gs://youtube8m-ml-us-east1/2/video/train/trainGQ.tfrecord"
        string_val: "gs://youtube8m-ml-us-east1/2/video/train/trainGR.tfrecord"
        string_val: "gs://youtube8m-ml-us-east1/2/video/train/trainGS.tfrecord"
        string_val: "gs://youtube8m-ml-us-east1/2/video/train/trainGT.tfrecord"
        string_val: "gs://youtube8m-ml-us-east1/2/video/train/trainGU.tfrecord"
        string_val: "gs://youtube8m-ml-us-east1/2/video/train/trainGV.tfrecord"
        string_val: "gs://youtube8m-ml-us-east1/2/video/train/trainGW.tfrecord"
        string_val: "gs://youtube8m-ml-us-east1/2/video/train/trainGX.tfrecord"
        string_val: "gs://youtube8m-ml-us-east1/2/video/train/trainGY.tfrecord"
        string_val: "gs://youtube8m-ml-us-east1/2/video/train/trainGZ.tfrecord"
        string_val: "gs://youtube8m-ml-us-east1/2/video/train/trainGa.tfrecord"
        string_val: "gs://youtube8m-ml-us-east1/2/video/train/trainGb.tfrecord"
        string_val: "gs://youtube8m-ml-us-east1/2/video/train/trainGc.tfrecord"
        string_val: "gs://youtube8m-ml-us-east1/2/video/train/trainGd.tfrecord"
        string_val: "gs://youtube8m-ml-us-east1/2/video/train/trainGe.tfrecord"
        string_val: "gs://youtube8m-ml-us-east1/2/video/train/trainGf.tfrecord"
        string_val: "gs://youtube8m-ml-us-east1/2/video/train/trainGg.tfrecord"
        string_val: "gs://youtube8m-ml-us-east1/2/video/train/trainGh.tfrecord"
        string_val: "gs://youtube8m-ml-us-east1/2/video/train/trainGi.tfrecord"
        string_val: "gs://youtube8m-ml-us-east1/2/video/train/trainGj.tfrecord"
        string_val: "gs://youtube8m-ml-us-east1/2/video/train/trainGk.tfrecord"
        string_val: "gs://youtube8m-ml-us-east1/2/video/train/trainGl.tfrecord"
        string_val: "gs://youtube8m-ml-us-east1/2/video/train/trainGm.tfrecord"
        string_val: "gs://youtube8m-ml-us-east1/2/video/train/trainGn.tfrecord"
        string_val: "gs://youtube8m-ml-us-east1/2/video/train/trainGo.tfrecord"
        string_val: "gs://youtube8m-ml-us-east1/2/video/train/trainGp.tfrecord"
        string_val: "gs://youtube8m-ml-us-east1/2/video/train/trainGq.tfrecord"
        string_val: "gs://youtube8m-ml-us-east1/2/video/train/trainGr.tfrecord"
        string_val: "gs://youtube8m-ml-us-east1/2/video/train/trainGs.tfrecord"
        string_val: "gs://youtube8m-ml-us-east1/2/video/train/trainGt.tfrecord"
        string_val: "gs://youtube8m-ml-us-east1/2/video/train/trainGu.tfrecord"
        string_val: "gs://youtube8m-ml-us-east1/2/video/train/trainGv.tfrecord"
        string_val: "gs://youtube8m-ml-us-east1/2/video/train/trainGw.tfrecord"
        string_val: "gs://youtube8m-ml-us-east1/2/video/train/trainGx.tfrecord"
        string_val: "gs://youtube8m-ml-us-east1/2/video/train/trainGy.tfrecord"
        string_val: "gs://youtube8m-ml-us-east1/2/video/train/trainGz.tfrecord"
        string_val: "gs://youtube8m-ml-us-east1/2/video/train/trainH0.tfrecord"
        string_val: "gs://youtube8m-ml-us-east1/2/video/train/trainH1.tfrecord"
        string_val: "gs://youtube8m-ml-us-east1/2/video/train/trainH2.tfrecord"
        string_val: "gs://youtube8m-ml-us-east1/2/video/train/trainH3.tfrecord"
        string_val: "gs://youtube8m-ml-us-east1/2/video/train/trainH4.tfrecord"
        string_val: "gs://youtube8m-ml-us-east1/2/video/train/trainH5.tfrecord"
        string_val: "gs://youtube8m-ml-us-east1/2/video/train/trainH6.tfrecord"
        string_val: "gs://youtube8m-ml-us-east1/2/video/train/trainH7.tfrecord"
        string_val: "gs://youtube8m-ml-us-east1/2/video/train/trainH8.tfrecord"
        string_val: "gs://youtube8m-ml-us-east1/2/video/train/trainH9.tfrecord"
        string_val: "gs://youtube8m-ml-us-east1/2/video/train/trainHA.tfrecord"
        string_val: "gs://youtube8m-ml-us-east1/2/video/train/trainHB.tfrecord"
        string_val: "gs://youtube8m-ml-us-east1/2/video/train/trainHC.tfrecord"
        string_val: "gs://youtube8m-ml-us-east1/2/video/train/trainHD.tfrecord"
        string_val: "gs://youtube8m-ml-us-east1/2/video/train/trainHE.tfrecord"
        string_val: "gs://youtube8m-ml-us-east1/2/video/train/trainHF.tfrecord"
        string_val: "gs://youtube8m-ml-us-east1/2/video/train/trainHG.tfrecord"
        string_val: "gs://youtube8m-ml-us-east1/2/video/train/trainHH.tfrecord"
        string_val: "gs://youtube8m-ml-us-east1/2/video/train/trainHI.tfrecord"
        string_val: "gs://youtube8m-ml-us-east1/2/video/train/trainHJ.tfrecord"
        string_val: "gs://youtube8m-ml-us-east1/2/video/train/trainHK.tfrecord"
        string_val: "gs://youtube8m-ml-us-east1/2/video/train/trainHL.tfrecord"
        string_val: "gs://youtube8m-ml-us-east1/2/video/train/trainHM.tfrecord"
        string_val: "gs://youtube8m-ml-us-east1/2/video/train/trainHN.tfrecord"
        string_val: "gs://youtube8m-ml-us-east1/2/video/train/trainHO.tfrecord"
        string_val: "gs://youtube8m-ml-us-east1/2/video/train/trainHP.tfrecord"
        string_val: "gs://youtube8m-ml-us-east1/2/video/train/trainHQ.tfrecord"
        string_val: "gs://youtube8m-ml-us-east1/2/video/train/trainHR.tfrecord"
        string_val: "gs://youtube8m-ml-us-east1/2/video/train/trainHS.tfrecord"
        string_val: "gs://youtube8m-ml-us-east1/2/video/train/trainHT.tfrecord"
        string_val: "gs://youtube8m-ml-us-east1/2/video/train/trainHU.tfrecord"
        string_val: "gs://youtube8m-ml-us-east1/2/video/train/trainHV.tfrecord"
        string_val: "gs://youtube8m-ml-us-east1/2/video/train/trainHW.tfrecord"
        string_val: "gs://youtube8m-ml-us-east1/2/video/train/trainHX.tfrecord"
        string_val: "gs://youtube8m-ml-us-east1/2/video/train/trainHY.tfrecord"
        string_val: "gs://youtube8m-ml-us-east1/2/video/train/trainHZ.tfrecord"
        string_val: "gs://youtube8m-ml-us-east1/2/video/train/trainHa.tfrecord"
        string_val: "gs://youtube8m-ml-us-east1/2/video/train/trainHb.tfrecord"
        string_val: "gs://youtube8m-ml-us-east1/2/video/train/trainHc.tfrecord"
        string_val: "gs://youtube8m-ml-us-east1/2/video/train/trainHd.tfrecord"
        string_val: "gs://youtube8m-ml-us-east1/2/video/train/trainHe.tfrecord"
        string_val: "gs://youtube8m-ml-us-east1/2/video/train/trainHf.tfrecord"
        string_val: "gs://youtube8m-ml-us-east1/2/video/train/trainHg.tfrecord"
        string_val: "gs://youtube8m-ml-us-east1/2/video/train/trainHh.tfrecord"
        string_val: "gs://youtube8m-ml-us-east1/2/video/train/trainHi.tfrecord"
        string_val: "gs://youtube8m-ml-us-east1/2/video/train/trainHj.tfrecord"
        string_val: "gs://youtube8m-ml-us-east1/2/video/train/trainHk.tfrecord"
        string_val: "gs://youtube8m-ml-us-east1/2/video/train/trainHl.tfrecord"
        string_val: "gs://youtube8m-ml-us-east1/2/video/train/trainHm.tfrecord"
        string_val: "gs://youtube8m-ml-us-east1/2/video/train/trainHn.tfrecord"
        string_val: "gs://youtube8m-ml-us-east1/2/video/train/trainHo.tfrecord"
        string_val: "gs://youtube8m-ml-us-east1/2/video/train/trainHp.tfrecord"
        string_val: "gs://youtube8m-ml-us-east1/2/video/train/trainHq.tfrecord"
        string_val: "gs://youtube8m-ml-us-east1/2/video/train/trainHr.tfrecord"
        string_val: "gs://youtube8m-ml-us-east1/2/video/train/trainHs.tfrecord"
        string_val: "gs://youtube8m-ml-us-east1/2/video/train/trainHt.tfrecord"
        string_val: "gs://youtube8m-ml-us-east1/2/video/train/trainHu.tfrecord"
        string_val: "gs://youtube8m-ml-us-east1/2/video/train/trainHv.tfrecord"
        string_val: "gs://youtube8m-ml-us-east1/2/video/train/trainHw.tfrecord"
        string_val: "gs://youtube8m-ml-us-east1/2/video/train/trainHx.tfrecord"
        string_val: "gs://youtube8m-ml-us-east1/2/video/train/trainHy.tfrecord"
        string_val: "gs://youtube8m-ml-us-east1/2/video/train/trainHz.tfrecord"
        string_val: "gs://youtube8m-ml-us-east1/2/video/train/trainI0.tfrecord"
        string_val: "gs://youtube8m-ml-us-east1/2/video/train/trainI1.tfrecord"
        string_val: "gs://youtube8m-ml-us-east1/2/video/train/trainI2.tfrecord"
        string_val: "gs://youtube8m-ml-us-east1/2/video/train/trainI3.tfrecord"
        string_val: "gs://youtube8m-ml-us-east1/2/video/train/trainI4.tfrecord"
        string_val: "gs://youtube8m-ml-us-east1/2/video/train/trainI5.tfrecord"
        string_val: "gs://youtube8m-ml-us-east1/2/video/train/trainI6.tfrecord"
        string_val: "gs://youtube8m-ml-us-east1/2/video/train/trainI7.tfrecord"
        string_val: "gs://youtube8m-ml-us-east1/2/video/train/trainI8.tfrecord"
        string_val: "gs://youtube8m-ml-us-east1/2/video/train/trainI9.tfrecord"
        string_val: "gs://youtube8m-ml-us-east1/2/video/train/trainIA.tfrecord"
        string_val: "gs://youtube8m-ml-us-east1/2/video/train/trainIB.tfrecord"
        string_val: "gs://youtube8m-ml-us-east1/2/video/train/trainIC.tfrecord"
        string_val: "gs://youtube8m-ml-us-east1/2/video/train/trainID.tfrecord"
        string_val: "gs://youtube8m-ml-us-east1/2/video/train/trainIE.tfrecord"
        string_val: "gs://youtube8m-ml-us-east1/2/video/train/trainIF.tfrecord"
        string_val: "gs://youtube8m-ml-us-east1/2/video/train/trainIG.tfrecord"
        string_val: "gs://youtube8m-ml-us-east1/2/video/train/trainIH.tfrecord"
        string_val: "gs://youtube8m-ml-us-east1/2/video/train/trainII.tfrecord"
        string_val: "gs://youtube8m-ml-us-east1/2/video/train/trainIJ.tfrecord"
        string_val: "gs://youtube8m-ml-us-east1/2/video/train/trainIK.tfrecord"
        string_val: "gs://youtube8m-ml-us-east1/2/video/train/trainIL.tfrecord"
        string_val: "gs://youtube8m-ml-us-east1/2/video/train/trainIM.tfrecord"
        string_val: "gs://youtube8m-ml-us-east1/2/video/train/trainIN.tfrecord"
        string_val: "gs://youtube8m-ml-us-east1/2/video/train/trainIO.tfrecord"
        string_val: "gs://youtube8m-ml-us-east1/2/video/train/trainIP.tfrecord"
        string_val: "gs://youtube8m-ml-us-east1/2/video/train/trainIQ.tfrecord"
        string_val: "gs://youtube8m-ml-us-east1/2/video/train/trainIR.tfrecord"
        string_val: "gs://youtube8m-ml-us-east1/2/video/train/trainIS.tfrecord"
        string_val: "gs://youtube8m-ml-us-east1/2/video/train/trainIT.tfrecord"
        string_val: "gs://youtube8m-ml-us-east1/2/video/train/trainIU.tfrecord"
        string_val: "gs://youtube8m-ml-us-east1/2/video/train/trainIV.tfrecord"
        string_val: "gs://youtube8m-ml-us-east1/2/video/train/trainIW.tfrecord"
        string_val: "gs://youtube8m-ml-us-east1/2/video/train/trainIX.tfrecord"
        string_val: "gs://youtube8m-ml-us-east1/2/video/train/trainIY.tfrecord"
        string_val: "gs://youtube8m-ml-us-east1/2/video/train/trainIZ.tfrecord"
        string_val: "gs://youtube8m-ml-us-east1/2/video/train/trainIa.tfrecord"
        string_val: "gs://youtube8m-ml-us-east1/2/video/train/trainIb.tfrecord"
        string_val: "gs://youtube8m-ml-us-east1/2/video/train/trainIc.tfrecord"
        string_val: "gs://youtube8m-ml-us-east1/2/video/train/trainId.tfrecord"
        string_val: "gs://youtube8m-ml-us-east1/2/video/train/trainIe.tfrecord"
        string_val: "gs://youtube8m-ml-us-east1/2/video/train/trainIf.tfrecord"
        string_val: "gs://youtube8m-ml-us-east1/2/video/train/trainIg.tfrecord"
        string_val: "gs://youtube8m-ml-us-east1/2/video/train/trainIh.tfrecord"
        string_val: "gs://youtube8m-ml-us-east1/2/video/train/trainIi.tfrecord"
        string_val: "gs://youtube8m-ml-us-east1/2/video/train/trainIj.tfrecord"
        string_val: "gs://youtube8m-ml-us-east1/2/video/train/trainIk.tfrecord"
        string_val: "gs://youtube8m-ml-us-east1/2/video/train/trainIl.tfrecord"
        string_val: "gs://youtube8m-ml-us-east1/2/video/train/trainIm.tfrecord"
        string_val: "gs://youtube8m-ml-us-east1/2/video/train/trainIn.tfrecord"
        string_val: "gs://youtube8m-ml-us-east1/2/video/train/trainIo.tfrecord"
        string_val: "gs://youtube8m-ml-us-east1/2/video/train/trainIp.tfrecord"
        string_val: "gs://youtube8m-ml-us-east1/2/video/train/trainIq.tfrecord"
        string_val: "gs://youtube8m-ml-us-east1/2/video/train/trainIr.tfrecord"
        string_val: "gs://youtube8m-ml-us-east1/2/video/train/trainIs.tfrecord"
        string_val: "gs://youtube8m-ml-us-east1/2/video/train/trainIt.tfrecord"
        string_val: "gs://youtube8m-ml-us-east1/2/video/train/trainIu.tfrecord"
        string_val: "gs://youtube8m-ml-us-east1/2/video/train/trainIv.tfrecord"
        string_val: "gs://youtube8m-ml-us-east1/2/video/train/trainIw.tfrecord"
        string_val: "gs://youtube8m-ml-us-east1/2/video/train/trainIx.tfrecord"
        string_val: "gs://youtube8m-ml-us-east1/2/video/train/trainIy.tfrecord"
        string_val: "gs://youtube8m-ml-us-east1/2/video/train/trainIz.tfrecord"
        string_val: "gs://youtube8m-ml-us-east1/2/video/train/trainJ0.tfrecord"
        string_val: "gs://youtube8m-ml-us-east1/2/video/train/trainJ1.tfrecord"
        string_val: "gs://youtube8m-ml-us-east1/2/video/train/trainJ2.tfrecord"
        string_val: "gs://youtube8m-ml-us-east1/2/video/train/trainJ3.tfrecord"
        string_val: "gs://youtube8m-ml-us-east1/2/video/train/trainJ4.tfrecord"
        string_val: "gs://youtube8m-ml-us-east1/2/video/train/trainJ5.tfrecord"
        string_val: "gs://youtube8m-ml-us-east1/2/video/train/trainJ6.tfrecord"
        string_val: "gs://youtube8m-ml-us-east1/2/video/train/trainJ7.tfrecord"
        string_val: "gs://youtube8m-ml-us-east1/2/video/train/trainJ8.tfrecord"
        string_val: "gs://youtube8m-ml-us-east1/2/video/train/trainJ9.tfrecord"
        string_val: "gs://youtube8m-ml-us-east1/2/video/train/trainJA.tfrecord"
        string_val: "gs://youtube8m-ml-us-east1/2/video/train/trainJB.tfrecord"
        string_val: "gs://youtube8m-ml-us-east1/2/video/train/trainJC.tfrecord"
        string_val: "gs://youtube8m-ml-us-east1/2/video/train/trainJD.tfrecord"
        string_val: "gs://youtube8m-ml-us-east1/2/video/train/trainJE.tfrecord"
        string_val: "gs://youtube8m-ml-us-east1/2/video/train/trainJF.tfrecord"
        string_val: "gs://youtube8m-ml-us-east1/2/video/train/trainJG.tfrecord"
        string_val: "gs://youtube8m-ml-us-east1/2/video/train/trainJH.tfrecord"
        string_val: "gs://youtube8m-ml-us-east1/2/video/train/trainJI.tfrecord"
        string_val: "gs://youtube8m-ml-us-east1/2/video/train/trainJJ.tfrecord"
        string_val: "gs://youtube8m-ml-us-east1/2/video/train/trainJK.tfrecord"
        string_val: "gs://youtube8m-ml-us-east1/2/video/train/trainJL.tfrecord"
        string_val: "gs://youtube8m-ml-us-east1/2/video/train/trainJM.tfrecord"
        string_val: "gs://youtube8m-ml-us-east1/2/video/train/trainJN.tfrecord"
        string_val: "gs://youtube8m-ml-us-east1/2/video/train/trainJO.tfrecord"
        string_val: "gs://youtube8m-ml-us-east1/2/video/train/trainJP.tfrecord"
        string_val: "gs://youtube8m-ml-us-east1/2/video/train/trainJQ.tfrecord"
        string_val: "gs://youtube8m-ml-us-east1/2/video/train/trainJR.tfrecord"
        string_val: "gs://youtube8m-ml-us-east1/2/video/train/trainJS.tfrecord"
        string_val: "gs://youtube8m-ml-us-east1/2/video/train/trainJT.tfrecord"
        string_val: "gs://youtube8m-ml-us-east1/2/video/train/trainJU.tfrecord"
        string_val: "gs://youtube8m-ml-us-east1/2/video/train/trainJV.tfrecord"
        string_val: "gs://youtube8m-ml-us-east1/2/video/train/trainJW.tfrecord"
        string_val: "gs://youtube8m-ml-us-east1/2/video/train/trainJX.tfrecord"
        string_val: "gs://youtube8m-ml-us-east1/2/video/train/trainJY.tfrecord"
        string_val: "gs://youtube8m-ml-us-east1/2/video/train/trainJZ.tfrecord"
        string_val: "gs://youtube8m-ml-us-east1/2/video/train/trainJa.tfrecord"
        string_val: "gs://youtube8m-ml-us-east1/2/video/train/trainJb.tfrecord"
        string_val: "gs://youtube8m-ml-us-east1/2/video/train/trainJc.tfrecord"
        string_val: "gs://youtube8m-ml-us-east1/2/video/train/trainJd.tfrecord"
        string_val: "gs://youtube8m-ml-us-east1/2/video/train/trainJe.tfrecord"
        string_val: "gs://youtube8m-ml-us-east1/2/video/train/trainJf.tfrecord"
        string_val: "gs://youtube8m-ml-us-east1/2/video/train/trainJg.tfrecord"
        string_val: "gs://youtube8m-ml-us-east1/2/video/train/trainJh.tfrecord"
        string_val: "gs://youtube8m-ml-us-east1/2/video/train/trainJi.tfrecord"
        string_val: "gs://youtube8m-ml-us-east1/2/video/train/trainJj.tfrecord"
        string_val: "gs://youtube8m-ml-us-east1/2/video/train/trainJk.tfrecord"
        string_val: "gs://youtube8m-ml-us-east1/2/video/train/trainJl.tfrecord"
        string_val: "gs://youtube8m-ml-us-east1/2/video/train/trainJm.tfrecord"
        string_val: "gs://youtube8m-ml-us-east1/2/video/train/trainJn.tfrecord"
        string_val: "gs://youtube8m-ml-us-east1/2/video/train/trainJo.tfrecord"
        string_val: "gs://youtube8m-ml-us-east1/2/video/train/trainJp.tfrecord"
        string_val: "gs://youtube8m-ml-us-east1/2/video/train/trainJq.tfrecord"
        string_val: "gs://youtube8m-ml-us-east1/2/video/train/trainJr.tfrecord"
        string_val: "gs://youtube8m-ml-us-east1/2/video/train/trainJs.tfrecord"
        string_val: "gs://youtube8m-ml-us-east1/2/video/train/trainJt.tfrecord"
        string_val: "gs://youtube8m-ml-us-east1/2/video/train/trainJu.tfrecord"
        string_val: "gs://youtube8m-ml-us-east1/2/video/train/trainJv.tfrecord"
        string_val: "gs://youtube8m-ml-us-east1/2/video/train/trainJw.tfrecord"
        string_val: "gs://youtube8m-ml-us-east1/2/video/train/trainJx.tfrecord"
        string_val: "gs://youtube8m-ml-us-east1/2/video/train/trainJy.tfrecord"
        string_val: "gs://youtube8m-ml-us-east1/2/video/train/trainJz.tfrecord"
        string_val: "gs://youtube8m-ml-us-east1/2/video/train/trainK0.tfrecord"
        string_val: "gs://youtube8m-ml-us-east1/2/video/train/trainK1.tfrecord"
        string_val: "gs://youtube8m-ml-us-east1/2/video/train/trainK2.tfrecord"
        string_val: "gs://youtube8m-ml-us-east1/2/video/train/trainK3.tfrecord"
        string_val: "gs://youtube8m-ml-us-east1/2/video/train/trainK4.tfrecord"
        string_val: "gs://youtube8m-ml-us-east1/2/video/train/trainK5.tfrecord"
        string_val: "gs://youtube8m-ml-us-east1/2/video/train/trainK6.tfrecord"
        string_val: "gs://youtube8m-ml-us-east1/2/video/train/trainK7.tfrecord"
        string_val: "gs://youtube8m-ml-us-east1/2/video/train/trainK8.tfrecord"
        string_val: "gs://youtube8m-ml-us-east1/2/video/train/trainK9.tfrecord"
        string_val: "gs://youtube8m-ml-us-east1/2/video/train/trainKA.tfrecord"
        string_val: "gs://youtube8m-ml-us-east1/2/video/train/trainKB.tfrecord"
        string_val: "gs://youtube8m-ml-us-east1/2/video/train/trainKC.tfrecord"
        string_val: "gs://youtube8m-ml-us-east1/2/video/train/trainKD.tfrecord"
        string_val: "gs://youtube8m-ml-us-east1/2/video/train/trainKE.tfrecord"
        string_val: "gs://youtube8m-ml-us-east1/2/video/train/trainKF.tfrecord"
        string_val: "gs://youtube8m-ml-us-east1/2/video/train/trainKG.tfrecord"
        string_val: "gs://youtube8m-ml-us-east1/2/video/train/trainKH.tfrecord"
        string_val: "gs://youtube8m-ml-us-east1/2/video/train/trainKI.tfrecord"
        string_val: "gs://youtube8m-ml-us-east1/2/video/train/trainKJ.tfrecord"
        string_val: "gs://youtube8m-ml-us-east1/2/video/train/trainKK.tfrecord"
        string_val: "gs://youtube8m-ml-us-east1/2/video/train/trainKL.tfrecord"
        string_val: "gs://youtube8m-ml-us-east1/2/video/train/trainKM.tfrecord"
        string_val: "gs://youtube8m-ml-us-east1/2/video/train/trainKN.tfrecord"
        string_val: "gs://youtube8m-ml-us-east1/2/video/train/trainKO.tfrecord"
        string_val: "gs://youtube8m-ml-us-east1/2/video/train/trainKP.tfrecord"
        string_val: "gs://youtube8m-ml-us-east1/2/video/train/trainKQ.tfrecord"
        string_val: "gs://youtube8m-ml-us-east1/2/video/train/trainKR.tfrecord"
        string_val: "gs://youtube8m-ml-us-east1/2/video/train/trainKS.tfrecord"
        string_val: "gs://youtube8m-ml-us-east1/2/video/train/trainKT.tfrecord"
        string_val: "gs://youtube8m-ml-us-east1/2/video/train/trainKU.tfrecord"
        string_val: "gs://youtube8m-ml-us-east1/2/video/train/trainKV.tfrecord"
        string_val: "gs://youtube8m-ml-us-east1/2/video/train/trainKW.tfrecord"
        string_val: "gs://youtube8m-ml-us-east1/2/video/train/trainKX.tfrecord"
        string_val: "gs://youtube8m-ml-us-east1/2/video/train/trainKY.tfrecord"
        string_val: "gs://youtube8m-ml-us-east1/2/video/train/trainKZ.tfrecord"
        string_val: "gs://youtube8m-ml-us-east1/2/video/train/trainKa.tfrecord"
        string_val: "gs://youtube8m-ml-us-east1/2/video/train/trainKb.tfrecord"
        string_val: "gs://youtube8m-ml-us-east1/2/video/train/trainKc.tfrecord"
        string_val: "gs://youtube8m-ml-us-east1/2/video/train/trainKd.tfrecord"
        string_val: "gs://youtube8m-ml-us-east1/2/video/train/trainKe.tfrecord"
        string_val: "gs://youtube8m-ml-us-east1/2/video/train/trainKf.tfrecord"
        string_val: "gs://youtube8m-ml-us-east1/2/video/train/trainKg.tfrecord"
        string_val: "gs://youtube8m-ml-us-east1/2/video/train/trainKh.tfrecord"
        string_val: "gs://youtube8m-ml-us-east1/2/video/train/trainKi.tfrecord"
        string_val: "gs://youtube8m-ml-us-east1/2/video/train/trainKj.tfrecord"
        string_val: "gs://youtube8m-ml-us-east1/2/video/train/trainKk.tfrecord"
        string_val: "gs://youtube8m-ml-us-east1/2/video/train/trainKl.tfrecord"
        string_val: "gs://youtube8m-ml-us-east1/2/video/train/trainKm.tfrecord"
        string_val: "gs://youtube8m-ml-us-east1/2/video/train/trainKn.tfrecord"
        string_val: "gs://youtube8m-ml-us-east1/2/video/train/trainKo.tfrecord"
        string_val: "gs://youtube8m-ml-us-east1/2/video/train/trainKp.tfrecord"
        string_val: "gs://youtube8m-ml-us-east1/2/video/train/trainKq.tfrecord"
        string_val: "gs://youtube8m-ml-us-east1/2/video/train/trainKr.tfrecord"
        string_val: "gs://youtube8m-ml-us-east1/2/video/train/trainKs.tfrecord"
        string_val: "gs://youtube8m-ml-us-east1/2/video/train/trainKt.tfrecord"
        string_val: "gs://youtube8m-ml-us-east1/2/video/train/trainKu.tfrecord"
        string_val: "gs://youtube8m-ml-us-east1/2/video/train/trainKv.tfrecord"
        string_val: "gs://youtube8m-ml-us-east1/2/video/train/trainKw.tfrecord"
        string_val: "gs://youtube8m-ml-us-east1/2/video/train/trainKx.tfrecord"
        string_val: "gs://youtube8m-ml-us-east1/2/video/train/trainKy.tfrecord"
        string_val: "gs://youtube8m-ml-us-east1/2/video/train/trainKz.tfrecord"
        string_val: "gs://youtube8m-ml-us-east1/2/video/train/trainL0.tfrecord"
        string_val: "gs://youtube8m-ml-us-east1/2/video/train/trainL1.tfrecord"
        string_val: "gs://youtube8m-ml-us-east1/2/video/train/trainL2.tfrecord"
        string_val: "gs://youtube8m-ml-us-east1/2/video/train/trainL3.tfrecord"
        string_val: "gs://youtube8m-ml-us-east1/2/video/train/trainL4.tfrecord"
        string_val: "gs://youtube8m-ml-us-east1/2/video/train/trainL5.tfrecord"
        string_val: "gs://youtube8m-ml-us-east1/2/video/train/trainL6.tfrecord"
        string_val: "gs://youtube8m-ml-us-east1/2/video/train/trainL7.tfrecord"
        string_val: "gs://youtube8m-ml-us-east1/2/video/train/trainL8.tfrecord"
        string_val: "gs://youtube8m-ml-us-east1/2/video/train/trainL9.tfrecord"
        string_val: "gs://youtube8m-ml-us-east1/2/video/train/trainLA.tfrecord"
        string_val: "gs://youtube8m-ml-us-east1/2/video/train/trainLB.tfrecord"
        string_val: "gs://youtube8m-ml-us-east1/2/video/train/trainLC.tfrecord"
        string_val: "gs://youtube8m-ml-us-east1/2/video/train/trainLD.tfrecord"
        string_val: "gs://youtube8m-ml-us-east1/2/video/train/trainLE.tfrecord"
        string_val: "gs://youtube8m-ml-us-east1/2/video/train/trainLF.tfrecord"
        string_val: "gs://youtube8m-ml-us-east1/2/video/train/trainLG.tfrecord"
        string_val: "gs://youtube8m-ml-us-east1/2/video/train/trainLH.tfrecord"
        string_val: "gs://youtube8m-ml-us-east1/2/video/train/trainLI.tfrecord"
        string_val: "gs://youtube8m-ml-us-east1/2/video/train/trainLJ.tfrecord"
        string_val: "gs://youtube8m-ml-us-east1/2/video/train/trainLK.tfrecord"
        string_val: "gs://youtube8m-ml-us-east1/2/video/train/trainLL.tfrecord"
        string_val: "gs://youtube8m-ml-us-east1/2/video/train/trainLM.tfrecord"
        string_val: "gs://youtube8m-ml-us-east1/2/video/train/trainLN.tfrecord"
        string_val: "gs://youtube8m-ml-us-east1/2/video/train/trainLO.tfrecord"
        string_val: "gs://youtube8m-ml-us-east1/2/video/train/trainLP.tfrecord"
        string_val: "gs://youtube8m-ml-us-east1/2/video/train/trainLQ.tfrecord"
        string_val: "gs://youtube8m-ml-us-east1/2/video/train/trainLR.tfrecord"
        string_val: "gs://youtube8m-ml-us-east1/2/video/train/trainLS.tfrecord"
        string_val: "gs://youtube8m-ml-us-east1/2/video/train/trainLT.tfrecord"
        string_val: "gs://youtube8m-ml-us-east1/2/video/train/trainLU.tfrecord"
        string_val: "gs://youtube8m-ml-us-east1/2/video/train/trainLV.tfrecord"
        string_val: "gs://youtube8m-ml-us-east1/2/video/train/trainLW.tfrecord"
        string_val: "gs://youtube8m-ml-us-east1/2/video/train/trainLX.tfrecord"
        string_val: "gs://youtube8m-ml-us-east1/2/video/train/trainLY.tfrecord"
        string_val: "gs://youtube8m-ml-us-east1/2/video/train/trainLZ.tfrecord"
        string_val: "gs://youtube8m-ml-us-east1/2/video/train/trainLa.tfrecord"
        string_val: "gs://youtube8m-ml-us-east1/2/video/train/trainLb.tfrecord"
        string_val: "gs://youtube8m-ml-us-east1/2/video/train/trainLc.tfrecord"
        string_val: "gs://youtube8m-ml-us-east1/2/video/train/trainLd.tfrecord"
        string_val: "gs://youtube8m-ml-us-east1/2/video/train/trainLe.tfrecord"
        string_val: "gs://youtube8m-ml-us-east1/2/video/train/trainLf.tfrecord"
        string_val: "gs://youtube8m-ml-us-east1/2/video/train/trainLg.tfrecord"
        string_val: "gs://youtube8m-ml-us-east1/2/video/train/trainLh.tfrecord"
        string_val: "gs://youtube8m-ml-us-east1/2/video/train/trainLi.tfrecord"
        string_val: "gs://youtube8m-ml-us-east1/2/video/train/trainLj.tfrecord"
        string_val: "gs://youtube8m-ml-us-east1/2/video/train/trainLk.tfrecord"
        string_val: "gs://youtube8m-ml-us-east1/2/video/train/trainLl.tfrecord"
        string_val: "gs://youtube8m-ml-us-east1/2/video/train/trainLm.tfrecord"
        string_val: "gs://youtube8m-ml-us-east1/2/video/train/trainLn.tfrecord"
        string_val: "gs://youtube8m-ml-us-east1/2/video/train/trainLo.tfrecord"
        string_val: "gs://youtube8m-ml-us-east1/2/video/train/trainLp.tfrecord"
        string_val: "gs://youtube8m-ml-us-east1/2/video/train/trainLq.tfrecord"
        string_val: "gs://youtube8m-ml-us-east1/2/video/train/trainLr.tfrecord"
        string_val: "gs://youtube8m-ml-us-east1/2/video/train/trainLs.tfrecord"
        string_val: "gs://youtube8m-ml-us-east1/2/video/train/trainLt.tfrecord"
        string_val: "gs://youtube8m-ml-us-east1/2/video/train/trainLu.tfrecord"
        string_val: "gs://youtube8m-ml-us-east1/2/video/train/trainLv.tfrecord"
        string_val: "gs://youtube8m-ml-us-east1/2/video/train/trainLw.tfrecord"
        string_val: "gs://youtube8m-ml-us-east1/2/video/train/trainLx.tfrecord"
        string_val: "gs://youtube8m-ml-us-east1/2/video/train/trainLy.tfrecord"
        string_val: "gs://youtube8m-ml-us-east1/2/video/train/trainLz.tfrecord"
        string_val: "gs://youtube8m-ml-us-east1/2/video/train/trainM0.tfrecord"
        string_val: "gs://youtube8m-ml-us-east1/2/video/train/trainM1.tfrecord"
        string_val: "gs://youtube8m-ml-us-east1/2/video/train/trainM2.tfrecord"
        string_val: "gs://youtube8m-ml-us-east1/2/video/train/trainM3.tfrecord"
        string_val: "gs://youtube8m-ml-us-east1/2/video/train/trainM4.tfrecord"
        string_val: "gs://youtube8m-ml-us-east1/2/video/train/trainM5.tfrecord"
        string_val: "gs://youtube8m-ml-us-east1/2/video/train/trainM6.tfrecord"
        string_val: "gs://youtube8m-ml-us-east1/2/video/train/trainM7.tfrecord"
        string_val: "gs://youtube8m-ml-us-east1/2/video/train/trainM8.tfrecord"
        string_val: "gs://youtube8m-ml-us-east1/2/video/train/trainM9.tfrecord"
        string_val: "gs://youtube8m-ml-us-east1/2/video/train/trainMA.tfrecord"
        string_val: "gs://youtube8m-ml-us-east1/2/video/train/trainMB.tfrecord"
        string_val: "gs://youtube8m-ml-us-east1/2/video/train/trainMC.tfrecord"
        string_val: "gs://youtube8m-ml-us-east1/2/video/train/trainMD.tfrecord"
        string_val: "gs://youtube8m-ml-us-east1/2/video/train/trainME.tfrecord"
        string_val: "gs://youtube8m-ml-us-east1/2/video/train/trainMF.tfrecord"
        string_val: "gs://youtube8m-ml-us-east1/2/video/train/trainMG.tfrecord"
        string_val: "gs://youtube8m-ml-us-east1/2/video/train/trainMH.tfrecord"
        string_val: "gs://youtube8m-ml-us-east1/2/video/train/trainMI.tfrecord"
        string_val: "gs://youtube8m-ml-us-east1/2/video/train/trainMJ.tfrecord"
        string_val: "gs://youtube8m-ml-us-east1/2/video/train/trainMK.tfrecord"
        string_val: "gs://youtube8m-ml-us-east1/2/video/train/trainML.tfrecord"
        string_val: "gs://youtube8m-ml-us-east1/2/video/train/trainMM.tfrecord"
        string_val: "gs://youtube8m-ml-us-east1/2/video/train/trainMN.tfrecord"
        string_val: "gs://youtube8m-ml-us-east1/2/video/train/trainMO.tfrecord"
        string_val: "gs://youtube8m-ml-us-east1/2/video/train/trainMP.tfrecord"
        string_val: "gs://youtube8m-ml-us-east1/2/video/train/trainMQ.tfrecord"
        string_val: "gs://youtube8m-ml-us-east1/2/video/train/trainMR.tfrecord"
        string_val: "gs://youtube8m-ml-us-east1/2/video/train/trainMS.tfrecord"
        string_val: "gs://youtube8m-ml-us-east1/2/video/train/trainMT.tfrecord"
        string_val: "gs://youtube8m-ml-us-east1/2/video/train/trainMU.tfrecord"
        string_val: "gs://youtube8m-ml-us-east1/2/video/train/trainMV.tfrecord"
        string_val: "gs://youtube8m-ml-us-east1/2/video/train/trainMW.tfrecord"
        string_val: "gs://youtube8m-ml-us-east1/2/video/train/trainMX.tfrecord"
        string_val: "gs://youtube8m-ml-us-east1/2/video/train/trainMY.tfrecord"
        string_val: "gs://youtube8m-ml-us-east1/2/video/train/trainMZ.tfrecord"
        string_val: "gs://youtube8m-ml-us-east1/2/video/train/trainMa.tfrecord"
        string_val: "gs://youtube8m-ml-us-east1/2/video/train/trainMb.tfrecord"
        string_val: "gs://youtube8m-ml-us-east1/2/video/train/trainMc.tfrecord"
        string_val: "gs://youtube8m-ml-us-east1/2/video/train/trainMd.tfrecord"
        string_val: "gs://youtube8m-ml-us-east1/2/video/train/trainMe.tfrecord"
        string_val: "gs://youtube8m-ml-us-east1/2/video/train/trainMf.tfrecord"
        string_val: "gs://youtube8m-ml-us-east1/2/video/train/trainMg.tfrecord"
        string_val: "gs://youtube8m-ml-us-east1/2/video/train/trainMh.tfrecord"
        string_val: "gs://youtube8m-ml-us-east1/2/video/train/trainMi.tfrecord"
        string_val: "gs://youtube8m-ml-us-east1/2/video/train/trainMj.tfrecord"
        string_val: "gs://youtube8m-ml-us-east1/2/video/train/trainMk.tfrecord"
        string_val: "gs://youtube8m-ml-us-east1/2/video/train/trainMl.tfrecord"
        string_val: "gs://youtube8m-ml-us-east1/2/video/train/trainMm.tfrecord"
        string_val: "gs://youtube8m-ml-us-east1/2/video/train/trainMn.tfrecord"
        string_val: "gs://youtube8m-ml-us-east1/2/video/train/trainMo.tfrecord"
        string_val: "gs://youtube8m-ml-us-east1/2/video/train/trainMp.tfrecord"
        string_val: "gs://youtube8m-ml-us-east1/2/video/train/trainMq.tfrecord"
        string_val: "gs://youtube8m-ml-us-east1/2/video/train/trainMr.tfrecord"
        string_val: "gs://youtube8m-ml-us-east1/2/video/train/trainMs.tfrecord"
        string_val: "gs://youtube8m-ml-us-east1/2/video/train/trainMt.tfrecord"
        string_val: "gs://youtube8m-ml-us-east1/2/video/train/trainMu.tfrecord"
        string_val: "gs://youtube8m-ml-us-east1/2/video/train/trainMv.tfrecord"
        string_val: "gs://youtube8m-ml-us-east1/2/video/train/trainMw.tfrecord"
        string_val: "gs://youtube8m-ml-us-east1/2/video/train/trainMx.tfrecord"
        string_val: "gs://youtube8m-ml-us-east1/2/video/train/trainMy.tfrecord"
        string_val: "gs://youtube8m-ml-us-east1/2/video/train/trainMz.tfrecord"
        string_val: "gs://youtube8m-ml-us-east1/2/video/train/trainN0.tfrecord"
        string_val: "gs://youtube8m-ml-us-east1/2/video/train/trainN1.tfrecord"
        string_val: "gs://youtube8m-ml-us-east1/2/video/train/trainN2.tfrecord"
        string_val: "gs://youtube8m-ml-us-east1/2/video/train/trainN3.tfrecord"
        string_val: "gs://youtube8m-ml-us-east1/2/video/train/trainN4.tfrecord"
        string_val: "gs://youtube8m-ml-us-east1/2/video/train/trainN5.tfrecord"
        string_val: "gs://youtube8m-ml-us-east1/2/video/train/trainN6.tfrecord"
        string_val: "gs://youtube8m-ml-us-east1/2/video/train/trainN7.tfrecord"
        string_val: "gs://youtube8m-ml-us-east1/2/video/train/trainN8.tfrecord"
        string_val: "gs://youtube8m-ml-us-east1/2/video/train/trainN9.tfrecord"
        string_val: "gs://youtube8m-ml-us-east1/2/video/train/trainNA.tfrecord"
        string_val: "gs://youtube8m-ml-us-east1/2/video/train/trainNB.tfrecord"
        string_val: "gs://youtube8m-ml-us-east1/2/video/train/trainNC.tfrecord"
        string_val: "gs://youtube8m-ml-us-east1/2/video/train/trainND.tfrecord"
        string_val: "gs://youtube8m-ml-us-east1/2/video/train/trainNE.tfrecord"
        string_val: "gs://youtube8m-ml-us-east1/2/video/train/trainNF.tfrecord"
        string_val: "gs://youtube8m-ml-us-east1/2/video/train/trainNG.tfrecord"
        string_val: "gs://youtube8m-ml-us-east1/2/video/train/trainNH.tfrecord"
        string_val: "gs://youtube8m-ml-us-east1/2/video/train/trainNI.tfrecord"
        string_val: "gs://youtube8m-ml-us-east1/2/video/train/trainNJ.tfrecord"
        string_val: "gs://youtube8m-ml-us-east1/2/video/train/trainNK.tfrecord"
        string_val: "gs://youtube8m-ml-us-east1/2/video/train/trainNL.tfrecord"
        string_val: "gs://youtube8m-ml-us-east1/2/video/train/trainNM.tfrecord"
        string_val: "gs://youtube8m-ml-us-east1/2/video/train/trainNN.tfrecord"
        string_val: "gs://youtube8m-ml-us-east1/2/video/train/trainNO.tfrecord"
        string_val: "gs://youtube8m-ml-us-east1/2/video/train/trainNP.tfrecord"
        string_val: "gs://youtube8m-ml-us-east1/2/video/train/trainNQ.tfrecord"
        string_val: "gs://youtube8m-ml-us-east1/2/video/train/trainNR.tfrecord"
        string_val: "gs://youtube8m-ml-us-east1/2/video/train/trainNS.tfrecord"
        string_val: "gs://youtube8m-ml-us-east1/2/video/train/trainNT.tfrecord"
        string_val: "gs://youtube8m-ml-us-east1/2/video/train/trainNU.tfrecord"
        string_val: "gs://youtube8m-ml-us-east1/2/video/train/trainNV.tfrecord"
        string_val: "gs://youtube8m-ml-us-east1/2/video/train/trainNW.tfrecord"
        string_val: "gs://youtube8m-ml-us-east1/2/video/train/trainNX.tfrecord"
        string_val: "gs://youtube8m-ml-us-east1/2/video/train/trainNY.tfrecord"
        string_val: "gs://youtube8m-ml-us-east1/2/video/train/trainNZ.tfrecord"
        string_val: "gs://youtube8m-ml-us-east1/2/video/train/trainNa.tfrecord"
        string_val: "gs://youtube8m-ml-us-east1/2/video/train/trainNb.tfrecord"
        string_val: "gs://youtube8m-ml-us-east1/2/video/train/trainNc.tfrecord"
        string_val: "gs://youtube8m-ml-us-east1/2/video/train/trainNd.tfrecord"
        string_val: "gs://youtube8m-ml-us-east1/2/video/train/trainNe.tfrecord"
        string_val: "gs://youtube8m-ml-us-east1/2/video/train/trainNf.tfrecord"
        string_val: "gs://youtube8m-ml-us-east1/2/video/train/trainNg.tfrecord"
        string_val: "gs://youtube8m-ml-us-east1/2/video/train/trainNh.tfrecord"
        string_val: "gs://youtube8m-ml-us-east1/2/video/train/trainNi.tfrecord"
        string_val: "gs://youtube8m-ml-us-east1/2/video/train/trainNj.tfrecord"
        string_val: "gs://youtube8m-ml-us-east1/2/video/train/trainNk.tfrecord"
        string_val: "gs://youtube8m-ml-us-east1/2/video/train/trainNl.tfrecord"
        string_val: "gs://youtube8m-ml-us-east1/2/video/train/trainNm.tfrecord"
        string_val: "gs://youtube8m-ml-us-east1/2/video/train/trainNn.tfrecord"
        string_val: "gs://youtube8m-ml-us-east1/2/video/train/trainNo.tfrecord"
        string_val: "gs://youtube8m-ml-us-east1/2/video/train/trainNp.tfrecord"
        string_val: "gs://youtube8m-ml-us-east1/2/video/train/trainNq.tfrecord"
        string_val: "gs://youtube8m-ml-us-east1/2/video/train/trainNr.tfrecord"
        string_val: "gs://youtube8m-ml-us-east1/2/video/train/trainNs.tfrecord"
        string_val: "gs://youtube8m-ml-us-east1/2/video/train/trainNt.tfrecord"
        string_val: "gs://youtube8m-ml-us-east1/2/video/train/trainNu.tfrecord"
        string_val: "gs://youtube8m-ml-us-east1/2/video/train/trainNv.tfrecord"
        string_val: "gs://youtube8m-ml-us-east1/2/video/train/trainNw.tfrecord"
        string_val: "gs://youtube8m-ml-us-east1/2/video/train/trainNx.tfrecord"
        string_val: "gs://youtube8m-ml-us-east1/2/video/train/trainNy.tfrecord"
        string_val: "gs://youtube8m-ml-us-east1/2/video/train/trainNz.tfrecord"
        string_val: "gs://youtube8m-ml-us-east1/2/video/train/trainO0.tfrecord"
        string_val: "gs://youtube8m-ml-us-east1/2/video/train/trainO1.tfrecord"
        string_val: "gs://youtube8m-ml-us-east1/2/video/train/trainO2.tfrecord"
        string_val: "gs://youtube8m-ml-us-east1/2/video/train/trainO3.tfrecord"
        string_val: "gs://youtube8m-ml-us-east1/2/video/train/trainO4.tfrecord"
        string_val: "gs://youtube8m-ml-us-east1/2/video/train/trainO5.tfrecord"
        string_val: "gs://youtube8m-ml-us-east1/2/video/train/trainO6.tfrecord"
        string_val: "gs://youtube8m-ml-us-east1/2/video/train/trainO7.tfrecord"
        string_val: "gs://youtube8m-ml-us-east1/2/video/train/trainO8.tfrecord"
        string_val: "gs://youtube8m-ml-us-east1/2/video/train/trainO9.tfrecord"
        string_val: "gs://youtube8m-ml-us-east1/2/video/train/trainOA.tfrecord"
        string_val: "gs://youtube8m-ml-us-east1/2/video/train/trainOB.tfrecord"
        string_val: "gs://youtube8m-ml-us-east1/2/video/train/trainOC.tfrecord"
        string_val: "gs://youtube8m-ml-us-east1/2/video/train/trainOD.tfrecord"
        string_val: "gs://youtube8m-ml-us-east1/2/video/train/trainOE.tfrecord"
        string_val: "gs://youtube8m-ml-us-east1/2/video/train/trainOF.tfrecord"
        string_val: "gs://youtube8m-ml-us-east1/2/video/train/trainOG.tfrecord"
        string_val: "gs://youtube8m-ml-us-east1/2/video/train/trainOH.tfrecord"
        string_val: "gs://youtube8m-ml-us-east1/2/video/train/trainOI.tfrecord"
        string_val: "gs://youtube8m-ml-us-east1/2/video/train/trainOJ.tfrecord"
        string_val: "gs://youtube8m-ml-us-east1/2/video/train/trainOK.tfrecord"
        string_val: "gs://youtube8m-ml-us-east1/2/video/train/trainOL.tfrecord"
        string_val: "gs://youtube8m-ml-us-east1/2/video/train/trainOM.tfrecord"
        string_val: "gs://youtube8m-ml-us-east1/2/video/train/trainON.tfrecord"
        string_val: "gs://youtube8m-ml-us-east1/2/video/train/trainOO.tfrecord"
        string_val: "gs://youtube8m-ml-us-east1/2/video/train/trainOP.tfrecord"
        string_val: "gs://youtube8m-ml-us-east1/2/video/train/trainOQ.tfrecord"
        string_val: "gs://youtube8m-ml-us-east1/2/video/train/trainOR.tfrecord"
        string_val: "gs://youtube8m-ml-us-east1/2/video/train/trainOS.tfrecord"
        string_val: "gs://youtube8m-ml-us-east1/2/video/train/trainOT.tfrecord"
        string_val: "gs://youtube8m-ml-us-east1/2/video/train/trainOU.tfrecord"
        string_val: "gs://youtube8m-ml-us-east1/2/video/train/trainOV.tfrecord"
        string_val: "gs://youtube8m-ml-us-east1/2/video/train/trainOW.tfrecord"
        string_val: "gs://youtube8m-ml-us-east1/2/video/train/trainOX.tfrecord"
        string_val: "gs://youtube8m-ml-us-east1/2/video/train/trainOY.tfrecord"
        string_val: "gs://youtube8m-ml-us-east1/2/video/train/trainOZ.tfrecord"
        string_val: "gs://youtube8m-ml-us-east1/2/video/train/trainOa.tfrecord"
        string_val: "gs://youtube8m-ml-us-east1/2/video/train/trainOb.tfrecord"
        string_val: "gs://youtube8m-ml-us-east1/2/video/train/trainOc.tfrecord"
        string_val: "gs://youtube8m-ml-us-east1/2/video/train/trainOd.tfrecord"
        string_val: "gs://youtube8m-ml-us-east1/2/video/train/trainOe.tfrecord"
        string_val: "gs://youtube8m-ml-us-east1/2/video/train/trainOf.tfrecord"
        string_val: "gs://youtube8m-ml-us-east1/2/video/train/trainOg.tfrecord"
        string_val: "gs://youtube8m-ml-us-east1/2/video/train/trainOh.tfrecord"
        string_val: "gs://youtube8m-ml-us-east1/2/video/train/trainOi.tfrecord"
        string_val: "gs://youtube8m-ml-us-east1/2/video/train/trainOj.tfrecord"
        string_val: "gs://youtube8m-ml-us-east1/2/video/train/trainOk.tfrecord"
        string_val: "gs://youtube8m-ml-us-east1/2/video/train/trainOl.tfrecord"
        string_val: "gs://youtube8m-ml-us-east1/2/video/train/trainOm.tfrecord"
        string_val: "gs://youtube8m-ml-us-east1/2/video/train/trainOn.tfrecord"
        string_val: "gs://youtube8m-ml-us-east1/2/video/train/trainOo.tfrecord"
        string_val: "gs://youtube8m-ml-us-east1/2/video/train/trainOp.tfrecord"
        string_val: "gs://youtube8m-ml-us-east1/2/video/train/trainOq.tfrecord"
        string_val: "gs://youtube8m-ml-us-east1/2/video/train/trainOr.tfrecord"
        string_val: "gs://youtube8m-ml-us-east1/2/video/train/trainOs.tfrecord"
        string_val: "gs://youtube8m-ml-us-east1/2/video/train/trainOt.tfrecord"
        string_val: "gs://youtube8m-ml-us-east1/2/video/train/trainOu.tfrecord"
        string_val: "gs://youtube8m-ml-us-east1/2/video/train/trainOv.tfrecord"
        string_val: "gs://youtube8m-ml-us-east1/2/video/train/trainOw.tfrecord"
        string_val: "gs://youtube8m-ml-us-east1/2/video/train/trainOx.tfrecord"
        string_val: "gs://youtube8m-ml-us-east1/2/video/train/trainOy.tfrecord"
        string_val: "gs://youtube8m-ml-us-east1/2/video/train/trainOz.tfrecord"
        string_val: "gs://youtube8m-ml-us-east1/2/video/train/trainP0.tfrecord"
        string_val: "gs://youtube8m-ml-us-east1/2/video/train/trainP1.tfrecord"
        string_val: "gs://youtube8m-ml-us-east1/2/video/train/trainP2.tfrecord"
        string_val: "gs://youtube8m-ml-us-east1/2/video/train/trainP3.tfrecord"
        string_val: "gs://youtube8m-ml-us-east1/2/video/train/trainP4.tfrecord"
        string_val: "gs://youtube8m-ml-us-east1/2/video/train/trainP5.tfrecord"
        string_val: "gs://youtube8m-ml-us-east1/2/video/train/trainP6.tfrecord"
        string_val: "gs://youtube8m-ml-us-east1/2/video/train/trainP7.tfrecord"
        string_val: "gs://youtube8m-ml-us-east1/2/video/train/trainP8.tfrecord"
        string_val: "gs://youtube8m-ml-us-east1/2/video/train/trainP9.tfrecord"
        string_val: "gs://youtube8m-ml-us-east1/2/video/train/trainPA.tfrecord"
        string_val: "gs://youtube8m-ml-us-east1/2/video/train/trainPB.tfrecord"
        string_val: "gs://youtube8m-ml-us-east1/2/video/train/trainPC.tfrecord"
        string_val: "gs://youtube8m-ml-us-east1/2/video/train/trainPD.tfrecord"
        string_val: "gs://youtube8m-ml-us-east1/2/video/train/trainPE.tfrecord"
        string_val: "gs://youtube8m-ml-us-east1/2/video/train/trainPF.tfrecord"
        string_val: "gs://youtube8m-ml-us-east1/2/video/train/trainPG.tfrecord"
        string_val: "gs://youtube8m-ml-us-east1/2/video/train/trainPH.tfrecord"
        string_val: "gs://youtube8m-ml-us-east1/2/video/train/trainPI.tfrecord"
        string_val: "gs://youtube8m-ml-us-east1/2/video/train/trainPJ.tfrecord"
        string_val: "gs://youtube8m-ml-us-east1/2/video/train/trainPK.tfrecord"
        string_val: "gs://youtube8m-ml-us-east1/2/video/train/trainPL.tfrecord"
        string_val: "gs://youtube8m-ml-us-east1/2/video/train/trainPM.tfrecord"
        string_val: "gs://youtube8m-ml-us-east1/2/video/train/trainPN.tfrecord"
        string_val: "gs://youtube8m-ml-us-east1/2/video/train/trainPO.tfrecord"
        string_val: "gs://youtube8m-ml-us-east1/2/video/train/trainPP.tfrecord"
        string_val: "gs://youtube8m-ml-us-east1/2/video/train/trainPQ.tfrecord"
        string_val: "gs://youtube8m-ml-us-east1/2/video/train/trainPR.tfrecord"
        string_val: "gs://youtube8m-ml-us-east1/2/video/train/trainPS.tfrecord"
        string_val: "gs://youtube8m-ml-us-east1/2/video/train/trainPT.tfrecord"
        string_val: "gs://youtube8m-ml-us-east1/2/video/train/trainPU.tfrecord"
        string_val: "gs://youtube8m-ml-us-east1/2/video/train/trainPV.tfrecord"
        string_val: "gs://youtube8m-ml-us-east1/2/video/train/trainPW.tfrecord"
        string_val: "gs://youtube8m-ml-us-east1/2/video/train/trainPX.tfrecord"
        string_val: "gs://youtube8m-ml-us-east1/2/video/train/trainPY.tfrecord"
        string_val: "gs://youtube8m-ml-us-east1/2/video/train/trainPZ.tfrecord"
        string_val: "gs://youtube8m-ml-us-east1/2/video/train/trainPa.tfrecord"
        string_val: "gs://youtube8m-ml-us-east1/2/video/train/trainPb.tfrecord"
        string_val: "gs://youtube8m-ml-us-east1/2/video/train/trainPc.tfrecord"
        string_val: "gs://youtube8m-ml-us-east1/2/video/train/trainPd.tfrecord"
        string_val: "gs://youtube8m-ml-us-east1/2/video/train/trainPe.tfrecord"
        string_val: "gs://youtube8m-ml-us-east1/2/video/train/trainPf.tfrecord"
        string_val: "gs://youtube8m-ml-us-east1/2/video/train/trainPg.tfrecord"
        string_val: "gs://youtube8m-ml-us-east1/2/video/train/trainPh.tfrecord"
        string_val: "gs://youtube8m-ml-us-east1/2/video/train/trainPi.tfrecord"
        string_val: "gs://youtube8m-ml-us-east1/2/video/train/trainPj.tfrecord"
        string_val: "gs://youtube8m-ml-us-east1/2/video/train/trainPk.tfrecord"
        string_val: "gs://youtube8m-ml-us-east1/2/video/train/trainPl.tfrecord"
        string_val: "gs://youtube8m-ml-us-east1/2/video/train/trainPm.tfrecord"
        string_val: "gs://youtube8m-ml-us-east1/2/video/train/trainPn.tfrecord"
        string_val: "gs://youtube8m-ml-us-east1/2/video/train/trainPo.tfrecord"
        string_val: "gs://youtube8m-ml-us-east1/2/video/train/trainPp.tfrecord"
        string_val: "gs://youtube8m-ml-us-east1/2/video/train/trainPq.tfrecord"
        string_val: "gs://youtube8m-ml-us-east1/2/video/train/trainPr.tfrecord"
        string_val: "gs://youtube8m-ml-us-east1/2/video/train/trainPs.tfrecord"
        string_val: "gs://youtube8m-ml-us-east1/2/video/train/trainPt.tfrecord"
        string_val: "gs://youtube8m-ml-us-east1/2/video/train/trainPu.tfrecord"
        string_val: "gs://youtube8m-ml-us-east1/2/video/train/trainPv.tfrecord"
        string_val: "gs://youtube8m-ml-us-east1/2/video/train/trainPw.tfrecord"
        string_val: "gs://youtube8m-ml-us-east1/2/video/train/trainPx.tfrecord"
        string_val: "gs://youtube8m-ml-us-east1/2/video/train/trainPy.tfrecord"
        string_val: "gs://youtube8m-ml-us-east1/2/video/train/trainPz.tfrecord"
        string_val: "gs://youtube8m-ml-us-east1/2/video/train/trainQ0.tfrecord"
        string_val: "gs://youtube8m-ml-us-east1/2/video/train/trainQ1.tfrecord"
        string_val: "gs://youtube8m-ml-us-east1/2/video/train/trainQ2.tfrecord"
        string_val: "gs://youtube8m-ml-us-east1/2/video/train/trainQ3.tfrecord"
        string_val: "gs://youtube8m-ml-us-east1/2/video/train/trainQ4.tfrecord"
        string_val: "gs://youtube8m-ml-us-east1/2/video/train/trainQ5.tfrecord"
        string_val: "gs://youtube8m-ml-us-east1/2/video/train/trainQ6.tfrecord"
        string_val: "gs://youtube8m-ml-us-east1/2/video/train/trainQ7.tfrecord"
        string_val: "gs://youtube8m-ml-us-east1/2/video/train/trainQ8.tfrecord"
        string_val: "gs://youtube8m-ml-us-east1/2/video/train/trainQ9.tfrecord"
        string_val: "gs://youtube8m-ml-us-east1/2/video/train/trainQA.tfrecord"
        string_val: "gs://youtube8m-ml-us-east1/2/video/train/trainQB.tfrecord"
        string_val: "gs://youtube8m-ml-us-east1/2/video/train/trainQC.tfrecord"
        string_val: "gs://youtube8m-ml-us-east1/2/video/train/trainQD.tfrecord"
        string_val: "gs://youtube8m-ml-us-east1/2/video/train/trainQE.tfrecord"
        string_val: "gs://youtube8m-ml-us-east1/2/video/train/trainQF.tfrecord"
        string_val: "gs://youtube8m-ml-us-east1/2/video/train/trainQG.tfrecord"
        string_val: "gs://youtube8m-ml-us-east1/2/video/train/trainQH.tfrecord"
        string_val: "gs://youtube8m-ml-us-east1/2/video/train/trainQI.tfrecord"
        string_val: "gs://youtube8m-ml-us-east1/2/video/train/trainQJ.tfrecord"
        string_val: "gs://youtube8m-ml-us-east1/2/video/train/trainQK.tfrecord"
        string_val: "gs://youtube8m-ml-us-east1/2/video/train/trainQL.tfrecord"
        string_val: "gs://youtube8m-ml-us-east1/2/video/train/trainQM.tfrecord"
        string_val: "gs://youtube8m-ml-us-east1/2/video/train/trainQN.tfrecord"
        string_val: "gs://youtube8m-ml-us-east1/2/video/train/trainQO.tfrecord"
        string_val: "gs://youtube8m-ml-us-east1/2/video/train/trainQP.tfrecord"
        string_val: "gs://youtube8m-ml-us-east1/2/video/train/trainQQ.tfrecord"
        string_val: "gs://youtube8m-ml-us-east1/2/video/train/trainQR.tfrecord"
        string_val: "gs://youtube8m-ml-us-east1/2/video/train/trainQS.tfrecord"
        string_val: "gs://youtube8m-ml-us-east1/2/video/train/trainQT.tfrecord"
        string_val: "gs://youtube8m-ml-us-east1/2/video/train/trainQU.tfrecord"
        string_val: "gs://youtube8m-ml-us-east1/2/video/train/trainQV.tfrecord"
        string_val: "gs://youtube8m-ml-us-east1/2/video/train/trainQW.tfrecord"
        string_val: "gs://youtube8m-ml-us-east1/2/video/train/trainQX.tfrecord"
        string_val: "gs://youtube8m-ml-us-east1/2/video/train/trainQY.tfrecord"
        string_val: "gs://youtube8m-ml-us-east1/2/video/train/trainQZ.tfrecord"
        string_val: "gs://youtube8m-ml-us-east1/2/video/train/trainQa.tfrecord"
        string_val: "gs://youtube8m-ml-us-east1/2/video/train/trainQb.tfrecord"
        string_val: "gs://youtube8m-ml-us-east1/2/video/train/trainQc.tfrecord"
        string_val: "gs://youtube8m-ml-us-east1/2/video/train/trainQd.tfrecord"
        string_val: "gs://youtube8m-ml-us-east1/2/video/train/trainQe.tfrecord"
        string_val: "gs://youtube8m-ml-us-east1/2/video/train/trainQf.tfrecord"
        string_val: "gs://youtube8m-ml-us-east1/2/video/train/trainQg.tfrecord"
        string_val: "gs://youtube8m-ml-us-east1/2/video/train/trainQh.tfrecord"
        string_val: "gs://youtube8m-ml-us-east1/2/video/train/trainQi.tfrecord"
        string_val: "gs://youtube8m-ml-us-east1/2/video/train/trainQj.tfrecord"
        string_val: "gs://youtube8m-ml-us-east1/2/video/train/trainQk.tfrecord"
        string_val: "gs://youtube8m-ml-us-east1/2/video/train/trainQl.tfrecord"
        string_val: "gs://youtube8m-ml-us-east1/2/video/train/trainQm.tfrecord"
        string_val: "gs://youtube8m-ml-us-east1/2/video/train/trainQn.tfrecord"
        string_val: "gs://youtube8m-ml-us-east1/2/video/train/trainQo.tfrecord"
        string_val: "gs://youtube8m-ml-us-east1/2/video/train/trainQp.tfrecord"
        string_val: "gs://youtube8m-ml-us-east1/2/video/train/trainQq.tfrecord"
        string_val: "gs://youtube8m-ml-us-east1/2/video/train/trainQr.tfrecord"
        string_val: "gs://youtube8m-ml-us-east1/2/video/train/trainQs.tfrecord"
        string_val: "gs://youtube8m-ml-us-east1/2/video/train/trainQt.tfrecord"
        string_val: "gs://youtube8m-ml-us-east1/2/video/train/trainQu.tfrecord"
        string_val: "gs://youtube8m-ml-us-east1/2/video/train/trainQv.tfrecord"
        string_val: "gs://youtube8m-ml-us-east1/2/video/train/trainQw.tfrecord"
        string_val: "gs://youtube8m-ml-us-east1/2/video/train/trainQx.tfrecord"
        string_val: "gs://youtube8m-ml-us-east1/2/video/train/trainQy.tfrecord"
        string_val: "gs://youtube8m-ml-us-east1/2/video/train/trainQz.tfrecord"
        string_val: "gs://youtube8m-ml-us-east1/2/video/train/trainR0.tfrecord"
        string_val: "gs://youtube8m-ml-us-east1/2/video/train/trainR1.tfrecord"
        string_val: "gs://youtube8m-ml-us-east1/2/video/train/trainR2.tfrecord"
        string_val: "gs://youtube8m-ml-us-east1/2/video/train/trainR3.tfrecord"
        string_val: "gs://youtube8m-ml-us-east1/2/video/train/trainR4.tfrecord"
        string_val: "gs://youtube8m-ml-us-east1/2/video/train/trainR5.tfrecord"
        string_val: "gs://youtube8m-ml-us-east1/2/video/train/trainR6.tfrecord"
        string_val: "gs://youtube8m-ml-us-east1/2/video/train/trainR7.tfrecord"
        string_val: "gs://youtube8m-ml-us-east1/2/video/train/trainR8.tfrecord"
        string_val: "gs://youtube8m-ml-us-east1/2/video/train/trainR9.tfrecord"
        string_val: "gs://youtube8m-ml-us-east1/2/video/train/trainRA.tfrecord"
        string_val: "gs://youtube8m-ml-us-east1/2/video/train/trainRB.tfrecord"
        string_val: "gs://youtube8m-ml-us-east1/2/video/train/trainRC.tfrecord"
        string_val: "gs://youtube8m-ml-us-east1/2/video/train/trainRD.tfrecord"
        string_val: "gs://youtube8m-ml-us-east1/2/video/train/trainRE.tfrecord"
        string_val: "gs://youtube8m-ml-us-east1/2/video/train/trainRF.tfrecord"
        string_val: "gs://youtube8m-ml-us-east1/2/video/train/trainRG.tfrecord"
        string_val: "gs://youtube8m-ml-us-east1/2/video/train/trainRH.tfrecord"
        string_val: "gs://youtube8m-ml-us-east1/2/video/train/trainRI.tfrecord"
        string_val: "gs://youtube8m-ml-us-east1/2/video/train/trainRJ.tfrecord"
        string_val: "gs://youtube8m-ml-us-east1/2/video/train/trainRK.tfrecord"
        string_val: "gs://youtube8m-ml-us-east1/2/video/train/trainRL.tfrecord"
        string_val: "gs://youtube8m-ml-us-east1/2/video/train/trainRM.tfrecord"
        string_val: "gs://youtube8m-ml-us-east1/2/video/train/trainRN.tfrecord"
        string_val: "gs://youtube8m-ml-us-east1/2/video/train/trainRO.tfrecord"
        string_val: "gs://youtube8m-ml-us-east1/2/video/train/trainRP.tfrecord"
        string_val: "gs://youtube8m-ml-us-east1/2/video/train/trainRQ.tfrecord"
        string_val: "gs://youtube8m-ml-us-east1/2/video/train/trainRR.tfrecord"
        string_val: "gs://youtube8m-ml-us-east1/2/video/train/trainRS.tfrecord"
        string_val: "gs://youtube8m-ml-us-east1/2/video/train/trainRT.tfrecord"
        string_val: "gs://youtube8m-ml-us-east1/2/video/train/trainRU.tfrecord"
        string_val: "gs://youtube8m-ml-us-east1/2/video/train/trainRV.tfrecord"
        string_val: "gs://youtube8m-ml-us-east1/2/video/train/trainRW.tfrecord"
        string_val: "gs://youtube8m-ml-us-east1/2/video/train/trainRX.tfrecord"
        string_val: "gs://youtube8m-ml-us-east1/2/video/train/trainRY.tfrecord"
        string_val: "gs://youtube8m-ml-us-east1/2/video/train/trainRZ.tfrecord"
        string_val: "gs://youtube8m-ml-us-east1/2/video/train/trainRa.tfrecord"
        string_val: "gs://youtube8m-ml-us-east1/2/video/train/trainRb.tfrecord"
        string_val: "gs://youtube8m-ml-us-east1/2/video/train/trainRc.tfrecord"
        string_val: "gs://youtube8m-ml-us-east1/2/video/train/trainRd.tfrecord"
        string_val: "gs://youtube8m-ml-us-east1/2/video/train/trainRe.tfrecord"
        string_val: "gs://youtube8m-ml-us-east1/2/video/train/trainRf.tfrecord"
        string_val: "gs://youtube8m-ml-us-east1/2/video/train/trainRg.tfrecord"
        string_val: "gs://youtube8m-ml-us-east1/2/video/train/trainRh.tfrecord"
        string_val: "gs://youtube8m-ml-us-east1/2/video/train/trainRi.tfrecord"
        string_val: "gs://youtube8m-ml-us-east1/2/video/train/trainRj.tfrecord"
        string_val: "gs://youtube8m-ml-us-east1/2/video/train/trainRk.tfrecord"
        string_val: "gs://youtube8m-ml-us-east1/2/video/train/trainRl.tfrecord"
        string_val: "gs://youtube8m-ml-us-east1/2/video/train/trainRm.tfrecord"
        string_val: "gs://youtube8m-ml-us-east1/2/video/train/trainRn.tfrecord"
        string_val: "gs://youtube8m-ml-us-east1/2/video/train/trainRo.tfrecord"
        string_val: "gs://youtube8m-ml-us-east1/2/video/train/trainRp.tfrecord"
        string_val: "gs://youtube8m-ml-us-east1/2/video/train/trainRq.tfrecord"
        string_val: "gs://youtube8m-ml-us-east1/2/video/train/trainRr.tfrecord"
        string_val: "gs://youtube8m-ml-us-east1/2/video/train/trainRs.tfrecord"
        string_val: "gs://youtube8m-ml-us-east1/2/video/train/trainRt.tfrecord"
        string_val: "gs://youtube8m-ml-us-east1/2/video/train/trainRu.tfrecord"
        string_val: "gs://youtube8m-ml-us-east1/2/video/train/trainRv.tfrecord"
        string_val: "gs://youtube8m-ml-us-east1/2/video/train/trainRw.tfrecord"
        string_val: "gs://youtube8m-ml-us-east1/2/video/train/trainRx.tfrecord"
        string_val: "gs://youtube8m-ml-us-east1/2/video/train/trainRy.tfrecord"
        string_val: "gs://youtube8m-ml-us-east1/2/video/train/trainRz.tfrecord"
        string_val: "gs://youtube8m-ml-us-east1/2/video/train/trainS0.tfrecord"
        string_val: "gs://youtube8m-ml-us-east1/2/video/train/trainS1.tfrecord"
        string_val: "gs://youtube8m-ml-us-east1/2/video/train/trainS2.tfrecord"
        string_val: "gs://youtube8m-ml-us-east1/2/video/train/trainS3.tfrecord"
        string_val: "gs://youtube8m-ml-us-east1/2/video/train/trainS4.tfrecord"
        string_val: "gs://youtube8m-ml-us-east1/2/video/train/trainS5.tfrecord"
        string_val: "gs://youtube8m-ml-us-east1/2/video/train/trainS6.tfrecord"
        string_val: "gs://youtube8m-ml-us-east1/2/video/train/trainS7.tfrecord"
        string_val: "gs://youtube8m-ml-us-east1/2/video/train/trainS8.tfrecord"
        string_val: "gs://youtube8m-ml-us-east1/2/video/train/trainS9.tfrecord"
        string_val: "gs://youtube8m-ml-us-east1/2/video/train/trainSA.tfrecord"
        string_val: "gs://youtube8m-ml-us-east1/2/video/train/trainSB.tfrecord"
        string_val: "gs://youtube8m-ml-us-east1/2/video/train/trainSC.tfrecord"
        string_val: "gs://youtube8m-ml-us-east1/2/video/train/trainSD.tfrecord"
        string_val: "gs://youtube8m-ml-us-east1/2/video/train/trainSE.tfrecord"
        string_val: "gs://youtube8m-ml-us-east1/2/video/train/trainSF.tfrecord"
        string_val: "gs://youtube8m-ml-us-east1/2/video/train/trainSG.tfrecord"
        string_val: "gs://youtube8m-ml-us-east1/2/video/train/trainSH.tfrecord"
        string_val: "gs://youtube8m-ml-us-east1/2/video/train/trainSI.tfrecord"
        string_val: "gs://youtube8m-ml-us-east1/2/video/train/trainSJ.tfrecord"
        string_val: "gs://youtube8m-ml-us-east1/2/video/train/trainSK.tfrecord"
        string_val: "gs://youtube8m-ml-us-east1/2/video/train/trainSL.tfrecord"
        string_val: "gs://youtube8m-ml-us-east1/2/video/train/trainSM.tfrecord"
        string_val: "gs://youtube8m-ml-us-east1/2/video/train/trainSN.tfrecord"
        string_val: "gs://youtube8m-ml-us-east1/2/video/train/trainSO.tfrecord"
        string_val: "gs://youtube8m-ml-us-east1/2/video/train/trainSP.tfrecord"
        string_val: "gs://youtube8m-ml-us-east1/2/video/train/trainSQ.tfrecord"
        string_val: "gs://youtube8m-ml-us-east1/2/video/train/trainSR.tfrecord"
        string_val: "gs://youtube8m-ml-us-east1/2/video/train/trainSS.tfrecord"
        string_val: "gs://youtube8m-ml-us-east1/2/video/train/trainST.tfrecord"
        string_val: "gs://youtube8m-ml-us-east1/2/video/train/trainSU.tfrecord"
        string_val: "gs://youtube8m-ml-us-east1/2/video/train/trainSV.tfrecord"
        string_val: "gs://youtube8m-ml-us-east1/2/video/train/trainSW.tfrecord"
        string_val: "gs://youtube8m-ml-us-east1/2/video/train/trainSX.tfrecord"
        string_val: "gs://youtube8m-ml-us-east1/2/video/train/trainSY.tfrecord"
        string_val: "gs://youtube8m-ml-us-east1/2/video/train/trainSZ.tfrecord"
        string_val: "gs://youtube8m-ml-us-east1/2/video/train/trainSa.tfrecord"
        string_val: "gs://youtube8m-ml-us-east1/2/video/train/trainSb.tfrecord"
        string_val: "gs://youtube8m-ml-us-east1/2/video/train/trainSc.tfrecord"
        string_val: "gs://youtube8m-ml-us-east1/2/video/train/trainSd.tfrecord"
        string_val: "gs://youtube8m-ml-us-east1/2/video/train/trainSe.tfrecord"
        string_val: "gs://youtube8m-ml-us-east1/2/video/train/trainSf.tfrecord"
        string_val: "gs://youtube8m-ml-us-east1/2/video/train/trainSg.tfrecord"
        string_val: "gs://youtube8m-ml-us-east1/2/video/train/trainSh.tfrecord"
        string_val: "gs://youtube8m-ml-us-east1/2/video/train/trainSi.tfrecord"
        string_val: "gs://youtube8m-ml-us-east1/2/video/train/trainSj.tfrecord"
        string_val: "gs://youtube8m-ml-us-east1/2/video/train/trainSk.tfrecord"
        string_val: "gs://youtube8m-ml-us-east1/2/video/train/trainSl.tfrecord"
        string_val: "gs://youtube8m-ml-us-east1/2/video/train/trainSm.tfrecord"
        string_val: "gs://youtube8m-ml-us-east1/2/video/train/trainSn.tfrecord"
        string_val: "gs://youtube8m-ml-us-east1/2/video/train/trainSo.tfrecord"
        string_val: "gs://youtube8m-ml-us-east1/2/video/train/trainSp.tfrecord"
        string_val: "gs://youtube8m-ml-us-east1/2/video/train/trainSq.tfrecord"
        string_val: "gs://youtube8m-ml-us-east1/2/video/train/trainSr.tfrecord"
        string_val: "gs://youtube8m-ml-us-east1/2/video/train/trainSs.tfrecord"
…
    value {
      list {
        shape {
        }
      }
    }
  }
  attr {
    key: "dtype"
    value {
      type: DT_FLOAT
    }
  }
  attr {
    key: "value"
    value {
      tensor {
        dtype: DT_FLOAT
        tensor_shape {
        }
        float_val: 0.0
      }
    }
  }
}
node {
  name: "tower/fully_connected/biases/Adam/Initializer/zeros"
  op: "Fill"
  input: "tower/fully_connected/biases/Adam/Initializer/zeros/shape_as_tensor"
  input: "tower/fully_connected/biases/Adam/Initializer/zeros/Const"
  device: "/device:CPU:0"
  attr {
    key: "T"
    value {
      type: DT_FLOAT
    }
  }
  attr {
    key: "_class"
    value {
      list {
        s: "loc:@tower/fully_connected/biases"
      }
    }
  }
  attr {
    key: "_output_shapes"
    value {
      list {
        shape {
          dim {
            size: 3862
          }
        }
      }
    }
  }
  attr {
    key: "index_type"
    value {
      type: DT_INT32
    }
  }
}
node {
  name: "tower/fully_connected/biases/Adam"
  op: "VariableV2"
  device: "/device:CPU:0"
  attr {
    key: "_class"
    value {
      list {
        s: "loc:@tower/fully_connected/biases"
      }
    }
  }
  attr {
    key: "_output_shapes"
    value {
      list {
        shape {
          dim {
            size: 3862
          }
        }
      }
    }
  }
  attr {
    key: "container"
    value {
      s: ""
    }
  }
  attr {
    key: "dtype"
    value {
      type: DT_FLOAT
    }
  }
  attr {
    key: "shape"
    value {
      shape {
        dim {
          size: 3862
        }
      }
    }
  }
  attr {
    key: "shared_name"
    value {
      s: ""
    }
  }
}
node {
  name: "tower/fully_connected/biases/Adam/Assign"
  op: "Assign"
  input: "tower/fully_connected/biases/Adam"
  input: "tower/fully_connected/biases/Adam/Initializer/zeros"
  device: "/device:CPU:0"
  attr {
    key: "T"
    value {
      type: DT_FLOAT
    }
  }
  attr {
    key: "_class"
    value {
      list {
        s: "loc:@tower/fully_connected/biases"
      }
    }
  }
  attr {
    key: "_output_shapes"
    value {
      list {
        shape {
          dim {
            size: 3862
          }
        }
      }
    }
  }
  attr {
    key: "use_locking"
    value {
      b: true
    }
  }
  attr {
    key: "validate_shape"
    value {
      b: true
    }
  }
}
node {
  name: "tower/fully_connected/biases/Adam/read"
  op: "Identity"
  input: "tower/fully_connected/biases/Adam"
  device: "/device:CPU:0"
  attr {
    key: "T"
    value {
      type: DT_FLOAT
    }
  }
  attr {
    key: "_class"
    value {
      list {
        s: "loc:@tower/fully_connected/biases"
      }
    }
  }
  attr {
    key: "_output_shapes"
    value {
      list {
        shape {
          dim {
            size: 3862
          }
        }
      }
    }
  }
}
node {
  name: "tower/fully_connected/biases/Adam_1/Initializer/zeros/shape_as_tensor"
  op: "Const"
  device: "/device:CPU:0"
  attr {
    key: "_class"
    value {
      list {
        s: "loc:@tower/fully_connected/biases"
      }
    }
  }
  attr {
    key: "_output_shapes"
    value {
      list {
        shape {
          dim {
            size: 1
          }
        }
      }
    }
  }
  attr {
    key: "dtype"
    value {
      type: DT_INT32
    }
  }
  attr {
    key: "value"
    value {
      tensor {
        dtype: DT_INT32
        tensor_shape {
          dim {
            size: 1
          }
        }
        int_val: 3862
      }
    }
  }
}
node {
  name: "tower/fully_connected/biases/Adam_1/Initializer/zeros/Const"
  op: "Const"
  device: "/device:CPU:0"
  attr {
    key: "_class"
    value {
      list {
        s: "loc:@tower/fully_connected/biases"
      }
    }
  }
  attr {
    key: "_output_shapes"
    value {
      list {
        shape {
        }
      }
    }
  }
  attr {
    key: "dtype"
    value {
      type: DT_FLOAT
    }
  }
  attr {
    key: "value"
    value {
      tensor {
        dtype: DT_FLOAT
        tensor_shape {
        }
        float_val: 0.0
      }
    }
  }
}
node {
  name: "tower/fully_connected/biases/Adam_1/Initializer/zeros"
  op: "Fill"
  input: "tower/fully_connected/biases/Adam_1/Initializer/zeros/shape_as_tensor"
  input: "tower/fully_connected/biases/Adam_1/Initializer/zeros/Const"
  device: "/device:CPU:0"
  attr {
    key: "T"
    value {
      type: DT_FLOAT
    }
  }
  attr {
    key: "_class"
    value {
      list {
        s: "loc:@tower/fully_connected/biases"
      }
    }
  }
  attr {
    key: "_output_shapes"
    value {
      list {
        shape {
          dim {
            size: 3862
          }
        }
      }
    }
  }
  attr {
    key: "index_type"
    value {
      type: DT_INT32
    }
  }
}
node {
  name: "tower/fully_connected/biases/Adam_1"
  op: "VariableV2"
  device: "/device:CPU:0"
  attr {
    key: "_class"
    value {
      list {
        s: "loc:@tower/fully_connected/biases"
      }
    }
  }
  attr {
    key: "_output_shapes"
    value {
      list {
        shape {
          dim {
            size: 3862
          }
        }
      }
    }
  }
  attr {
    key: "container"
    value {
      s: ""
    }
  }
  attr {
    key: "dtype"
    value {
      type: DT_FLOAT
    }
  }
  attr {
    key: "shape"
    value {
      shape {
        dim {
          size: 3862
        }
      }
    }
  }
  attr {
    key: "shared_name"
    value {
      s: ""
    }
  }
}
node {
  name: "tower/fully_connected/biases/Adam_1/Assign"
  op: "Assign"
  input: "tower/fully_connected/biases/Adam_1"
  input: "tower/fully_connected/biases/Adam_1/Initializer/zeros"
  device: "/device:CPU:0"
  attr {
    key: "T"
    value {
      type: DT_FLOAT
    }
  }
  attr {
    key: "_class"
    value {
      list {
        s: "loc:@tower/fully_connected/biases"
      }
    }
  }
  attr {
    key: "_output_shapes"
    value {
      list {
        shape {
          dim {
            size: 3862
          }
        }
      }
    }
  }
  attr {
    key: "use_locking"
    value {
      b: true
    }
  }
  attr {
    key: "validate_shape"
    value {
      b: true
    }
  }
}
node {
  name: "tower/fully_connected/biases/Adam_1/read"
  op: "Identity"
  input: "tower/fully_connected/biases/Adam_1"
  device: "/device:CPU:0"
  attr {
    key: "T"
    value {
      type: DT_FLOAT
    }
  }
  attr {
    key: "_class"
    value {
      list {
        s: "loc:@tower/fully_connected/biases"
      }
    }
  }
  attr {
    key: "_output_shapes"
    value {
      list {
        shape {
          dim {
            size: 3862
          }
        }
      }
    }
  }
}
node {
  name: "Adam/beta1"
  op: "Const"
  attr {
    key: "_output_shapes"
    value {
      list {
        shape {
        }
      }
    }
  }
  attr {
    key: "dtype"
    value {
      type: DT_FLOAT
    }
  }
  attr {
    key: "value"
    value {
      tensor {
        dtype: DT_FLOAT
        tensor_shape {
        }
        float_val: 0.899999976158
      }
    }
  }
}
node {
  name: "Adam/beta2"
  op: "Const"
  attr {
    key: "_output_shapes"
    value {
      list {
        shape {
        }
      }
    }
  }
  attr {
    key: "dtype"
    value {
      type: DT_FLOAT
    }
  }
  attr {
    key: "value"
    value {
      tensor {
        dtype: DT_FLOAT
        tensor_shape {
        }
        float_val: 0.999000012875
      }
    }
  }
}
node {
  name: "Adam/epsilon"
  op: "Const"
  attr {
    key: "_output_shapes"
    value {
      list {
        shape {
        }
      }
    }
  }
  attr {
    key: "dtype"
    value {
      type: DT_FLOAT
    }
  }
  attr {
    key: "value"
    value {
      tensor {
        dtype: DT_FLOAT
        tensor_shape {
        }
        float_val: 9.99999993923e-09
      }
    }
  }
}
node {
  name: "Adam/update_tower/fully_connected/weights/ApplyAdam"
  op: "ApplyAdam"
  input: "tower/fully_connected/weights"
  input: "tower/fully_connected/weights/Adam"
  input: "tower/fully_connected/weights/Adam_1"
  input: "beta1_power/read"
  input: "beta2_power/read"
  input: "ExponentialDecay"
  input: "Adam/beta1"
  input: "Adam/beta2"
  input: "Adam/epsilon"
  input: "clip_grads/clip_by_norm"
  device: "/device:CPU:0"
  attr {
    key: "T"
    value {
      type: DT_FLOAT
    }
  }
  attr {
    key: "_class"
    value {
      list {
        s: "loc:@tower/fully_connected/weights"
      }
    }
  }
  attr {
    key: "_output_shapes"
    value {
      list {
        shape {
          dim {
            size: 1024
          }
          dim {
            size: 3862
          }
        }
      }
    }
  }
  attr {
    key: "use_locking"
    value {
      b: false
    }
  }
  attr {
    key: "use_nesterov"
    value {
      b: false
    }
  }
}
node {
  name: "Adam/update_tower/fully_connected/biases/ApplyAdam"
  op: "ApplyAdam"
  input: "tower/fully_connected/biases"
  input: "tower/fully_connected/biases/Adam"
  input: "tower/fully_connected/biases/Adam_1"
  input: "beta1_power/read"
  input: "beta2_power/read"
  input: "ExponentialDecay"
  input: "Adam/beta1"
  input: "Adam/beta2"
  input: "Adam/epsilon"
  input: "clip_grads/clip_by_norm_1"
  device: "/device:CPU:0"
  attr {
    key: "T"
    value {
      type: DT_FLOAT
    }
  }
  attr {
    key: "_class"
    value {
      list {
        s: "loc:@tower/fully_connected/biases"
      }
    }
  }
  attr {
    key: "_output_shapes"
    value {
      list {
        shape {
          dim {
            size: 3862
          }
        }
      }
    }
  }
  attr {
    key: "use_locking"
    value {
      b: false
    }
  }
  attr {
    key: "use_nesterov"
    value {
      b: false
    }
  }
}
node {
  name: "Adam/mul"
  op: "Mul"
  input: "beta1_power/read"
  input: "Adam/beta1"
  input: "^Adam/update_tower/fully_connected/biases/ApplyAdam"
  input: "^Adam/update_tower/fully_connected/weights/ApplyAdam"
  device: "/device:CPU:0"
  attr {
    key: "T"
    value {
      type: DT_FLOAT
    }
  }
  attr {
    key: "_class"
    value {
      list {
        s: "loc:@tower/fully_connected/biases"
      }
    }
  }
  attr {
    key: "_output_shapes"
    value {
      list {
        shape {
        }
      }
    }
  }
}
node {
  name: "Adam/Assign"
  op: "Assign"
  input: "beta1_power"
  input: "Adam/mul"
  device: "/device:CPU:0"
  attr {
    key: "T"
    value {
      type: DT_FLOAT
    }
  }
  attr {
    key: "_class"
    value {
      list {
        s: "loc:@tower/fully_connected/biases"
      }
    }
  }
  attr {
    key: "_output_shapes"
    value {
      list {
        shape {
        }
      }
    }
  }
  attr {
    key: "use_locking"
    value {
      b: false
    }
  }
  attr {
    key: "validate_shape"
    value {
      b: true
    }
  }
}
node {
  name: "Adam/mul_1"
  op: "Mul"
  input: "beta2_power/read"
  input: "Adam/beta2"
  input: "^Adam/update_tower/fully_connected/biases/ApplyAdam"
  input: "^Adam/update_tower/fully_connected/weights/ApplyAdam"
  device: "/device:CPU:0"
  attr {
    key: "T"
    value {
      type: DT_FLOAT
    }
  }
  attr {
    key: "_class"
    value {
      list {
        s: "loc:@tower/fully_connected/biases"
      }
    }
  }
  attr {
    key: "_output_shapes"
    value {
      list {
        shape {
        }
      }
    }
  }
}
node {
  name: "Adam/Assign_1"
  op: "Assign"
  input: "beta2_power"
  input: "Adam/mul_1"
  device: "/device:CPU:0"
  attr {
    key: "T"
    value {
      type: DT_FLOAT
    }
  }
  attr {
    key: "_class"
    value {
      list {
        s: "loc:@tower/fully_connected/biases"
      }
    }
  }
  attr {
    key: "_output_shapes"
    value {
      list {
        shape {
        }
      }
    }
  }
  attr {
    key: "use_locking"
    value {
      b: false
    }
  }
  attr {
    key: "validate_shape"
    value {
      b: true
    }
  }
}
node {
  name: "Adam/update"
  op: "NoOp"
  input: "^Adam/Assign"
  input: "^Adam/Assign_1"
  input: "^Adam/update_tower/fully_connected/biases/ApplyAdam"
  input: "^Adam/update_tower/fully_connected/weights/ApplyAdam"
  device: "/device:CPU:0"
}
node {
  name: "Adam/value"
  op: "Const"
  input: "^Adam/update"
  attr {
    key: "_class"
    value {
      list {
        s: "loc:@global_step"
      }
    }
  }
  attr {
    key: "_output_shapes"
    value {
      list {
        shape {
        }
      }
    }
  }
  attr {
    key: "dtype"
    value {
      type: DT_INT32
    }
  }
  attr {
    key: "value"
    value {
      tensor {
        dtype: DT_INT32
        tensor_shape {
        }
        int_val: 1
      }
    }
  }
}
node {
  name: "Adam"
  op: "AssignAdd"
  input: "global_step"
  input: "Adam/value"
  attr {
    key: "T"
    value {
      type: DT_INT32
    }
  }
  attr {
    key: "_class"
    value {
      list {
        s: "loc:@global_step"
      }
    }
  }
  attr {
    key: "_output_shapes"
    value {
      list {
        shape {
        }
      }
    }
  }
  attr {
    key: "use_locking"
    value {
      b: false
    }
  }
}
node {
  name: "concat/concat_dim"
  op: "Const"
  attr {
    key: "_output_shapes"
    value {
      list {
        shape {
        }
      }
    }
  }
  attr {
    key: "dtype"
    value {
      type: DT_INT32
    }
  }
  attr {
    key: "value"
    value {
      tensor {
        dtype: DT_INT32
        tensor_shape {
        }
        int_val: 0
      }
    }
  }
}
node {
  name: "concat"
  op: "Identity"
  input: "tower/fully_connected/Sigmoid"
  attr {
    key: "T"
    value {
      type: DT_FLOAT
    }
  }
  attr {
    key: "_output_shapes"
    value {
      list {
        shape {
          dim {
            size: 256
          }
          dim {
            size: 3862
          }
        }
      }
    }
  }
}
node {
  name: "Cast"
  op: "Cast"
  input: "train_input/shuffle_batch_join:2"
  attr {
    key: "DstT"
    value {
      type: DT_FLOAT
    }
  }
  attr {
    key: "SrcT"
    value {
      type: DT_BOOL
    }
  }
  attr {
    key: "_output_shapes"
    value {
      list {
        shape {
          dim {
            size: 256
          }
          dim {
            size: 3862
          }
        }
      }
    }
  }
}
node {
  name: "save/Const"
  op: "Const"
  attr {
    key: "_output_shapes"
    value {
      list {
        shape {
        }
      }
    }
  }
  attr {
    key: "dtype"
    value {
      type: DT_STRING
    }
  }
  attr {
    key: "value"
    value {
      tensor {
        dtype: DT_STRING
        tensor_shape {
        }
        string_val: "model"
      }
    }
  }
}
node {
  name: "save/SaveV2/tensor_names"
  op: "Const"
  attr {
    key: "_output_shapes"
    value {
      list {
        shape {
          dim {
            size: 9
          }
        }
      }
    }
  }
  attr {
    key: "dtype"
    value {
      type: DT_STRING
    }
  }
  attr {
    key: "value"
    value {
      tensor {
        dtype: DT_STRING
        tensor_shape {
          dim {
            size: 9
          }
        }
        string_val: "beta1_power"
        string_val: "beta2_power"
        string_val: "global_step"
        string_val: "tower/fully_connected/biases"
        string_val: "tower/fully_connected/biases/Adam"
        string_val: "tower/fully_connected/biases/Adam_1"
        string_val: "tower/fully_connected/weights"
        string_val: "tower/fully_connected/weights/Adam"
        string_val: "tower/fully_connected/weights/Adam_1"
      }
    }
  }
}
node {
  name: "save/SaveV2/shape_and_slices"
  op: "Const"
  attr {
    key: "_output_shapes"
    value {
      list {
        shape {
          dim {
            size: 9
          }
        }
      }
    }
  }
  attr {
    key: "dtype"
    value {
      type: DT_STRING
    }
  }
  attr {
    key: "value"
    value {
      tensor {
        dtype: DT_STRING
        tensor_shape {
          dim {
            size: 9
          }
        }
        string_val: ""
        string_val: ""
        string_val: ""
        string_val: ""
        string_val: ""
        string_val: ""
        string_val: ""
        string_val: ""
        string_val: ""
      }
    }
  }
}
node {
  name: "save/SaveV2"
  op: "SaveV2"
  input: "save/Const"
  input: "save/SaveV2/tensor_names"
  input: "save/SaveV2/shape_and_slices"
  input: "beta1_power"
  input: "beta2_power"
  input: "global_step"
  input: "tower/fully_connected/biases"
  input: "tower/fully_connected/biases/Adam"
  input: "tower/fully_connected/biases/Adam_1"
  input: "tower/fully_connected/weights"
  input: "tower/fully_connected/weights/Adam"
  input: "tower/fully_connected/weights/Adam_1"
  attr {
    key: "dtypes"
    value {
      list {
        type: DT_FLOAT
        type: DT_FLOAT
        type: DT_INT32
        type: DT_FLOAT
        type: DT_FLOAT
        type: DT_FLOAT
        type: DT_FLOAT
        type: DT_FLOAT
        type: DT_FLOAT
      }
    }
  }
}
node {
  name: "save/control_dependency"
  op: "Identity"
  input: "save/Const"
  input: "^save/SaveV2"
  attr {
    key: "T"
    value {
      type: DT_STRING
    }
  }
  attr {
    key: "_class"
    value {
      list {
        s: "loc:@save/Const"
      }
    }
  }
  attr {
    key: "_output_shapes"
    value {
      list {
        shape {
        }
      }
    }
  }
}
node {
  name: "save/RestoreV2/tensor_names"
  op: "Const"
  device: "/device:CPU:0"
  attr {
    key: "_output_shapes"
    value {
      list {
        shape {
          dim {
            size: 9
          }
        }
      }
    }
  }
  attr {
    key: "dtype"
    value {
      type: DT_STRING
    }
  }
  attr {
    key: "value"
    value {
      tensor {
        dtype: DT_STRING
        tensor_shape {
          dim {
            size: 9
          }
        }
        string_val: "beta1_power"
        string_val: "beta2_power"
        string_val: "global_step"
        string_val: "tower/fully_connected/biases"
        string_val: "tower/fully_connected/biases/Adam"
        string_val: "tower/fully_connected/biases/Adam_1"
        string_val: "tower/fully_connected/weights"
        string_val: "tower/fully_connected/weights/Adam"
        string_val: "tower/fully_connected/weights/Adam_1"
      }
    }
  }
}
node {
  name: "save/RestoreV2/shape_and_slices"
  op: "Const"
  device: "/device:CPU:0"
  attr {
    key: "_output_shapes"
    value {
      list {
        shape {
          dim {
            size: 9
          }
        }
      }
    }
  }
  attr {
    key: "dtype"
    value {
      type: DT_STRING
    }
  }
  attr {
    key: "value"
    value {
      tensor {
        dtype: DT_STRING
        tensor_shape {
          dim {
            size: 9
          }
        }
        string_val: ""
        string_val: ""
        string_val: ""
        string_val: ""
        string_val: ""
        string_val: ""
        string_val: ""
        string_val: ""
        string_val: ""
      }
    }
  }
}
node {
  name: "save/RestoreV2"
  op: "RestoreV2"
  input: "save/Const"
  input: "save/RestoreV2/tensor_names"
  input: "save/RestoreV2/shape_and_slices"
  device: "/device:CPU:0"
  attr {
    key: "_output_shapes"
    value {
      list {
        shape {
          unknown_rank: true
        }
        shape {
          unknown_rank: true
        }
        shape {
          unknown_rank: true
        }
        shape {
          unknown_rank: true
        }
        shape {
          unknown_rank: true
        }
        shape {
          unknown_rank: true
        }
        shape {
          unknown_rank: true
        }
        shape {
          unknown_rank: true
        }
        shape {
          unknown_rank: true
        }
      }
    }
  }
  attr {
    key: "dtypes"
    value {
      list {
        type: DT_FLOAT
        type: DT_FLOAT
        type: DT_INT32
        type: DT_FLOAT
        type: DT_FLOAT
        type: DT_FLOAT
        type: DT_FLOAT
        type: DT_FLOAT
        type: DT_FLOAT
      }
    }
  }
}
node {
  name: "save/Assign"
  op: "Assign"
  input: "beta1_power"
  input: "save/RestoreV2"
  device: "/device:CPU:0"
  attr {
    key: "T"
    value {
      type: DT_FLOAT
    }
  }
  attr {
    key: "_class"
    value {
      list {
        s: "loc:@tower/fully_connected/biases"
      }
    }
  }
  attr {
    key: "_output_shapes"
    value {
      list {
        shape {
        }
      }
    }
  }
  attr {
    key: "use_locking"
    value {
      b: true
    }
  }
  attr {
    key: "validate_shape"
    value {
      b: true
    }
  }
}
node {
  name: "save/Assign_1"
  op: "Assign"
  input: "beta2_power"
  input: "save/RestoreV2:1"
  device: "/device:CPU:0"
  attr {
    key: "T"
    value {
      type: DT_FLOAT
    }
  }
  attr {
    key: "_class"
    value {
      list {
        s: "loc:@tower/fully_connected/biases"
      }
    }
  }
  attr {
    key: "_output_shapes"
    value {
      list {
        shape {
        }
      }
    }
  }
  attr {
    key: "use_locking"
    value {
      b: true
    }
  }
  attr {
    key: "validate_shape"
    value {
      b: true
    }
  }
}
node {
  name: "save/Assign_2"
  op: "Assign"
  input: "global_step"
  input: "save/RestoreV2:2"
  attr {
    key: "T"
    value {
      type: DT_INT32
    }
  }
  attr {
    key: "_class"
    value {
      list {
        s: "loc:@global_step"
      }
    }
  }
  attr {
    key: "_output_shapes"
    value {
      list {
        shape {
        }
      }
    }
  }
  attr {
    key: "use_locking"
    value {
      b: true
    }
  }
  attr {
    key: "validate_shape"
    value {
      b: true
    }
  }
}
node {
  name: "save/Assign_3"
  op: "Assign"
  input: "tower/fully_connected/biases"
  input: "save/RestoreV2:3"
  device: "/device:CPU:0"
  attr {
    key: "T"
    value {
      type: DT_FLOAT
    }
  }
  attr {
    key: "_class"
    value {
      list {
        s: "loc:@tower/fully_connected/biases"
      }
    }
  }
  attr {
    key: "_output_shapes"
    value {
      list {
        shape {
          dim {
            size: 3862
          }
        }
      }
    }
  }
  attr {
    key: "use_locking"
    value {
      b: true
    }
  }
  attr {
    key: "validate_shape"
    value {
      b: true
    }
  }
}
node {
  name: "save/Assign_4"
  op: "Assign"
  input: "tower/fully_connected/biases/Adam"
  input: "save/RestoreV2:4"
  device: "/device:CPU:0"
  attr {
    key: "T"
    value {
      type: DT_FLOAT
    }
  }
  attr {
    key: "_class"
    value {
      list {
        s: "loc:@tower/fully_connected/biases"
      }
    }
  }
  attr {
    key: "_output_shapes"
    value {
      list {
        shape {
          dim {
            size: 3862
          }
        }
      }
    }
  }
  attr {
    key: "use_locking"
    value {
      b: true
    }
  }
  attr {
    key: "validate_shape"
    value {
      b: true
    }
  }
}
node {
  name: "save/Assign_5"
  op: "Assign"
  input: "tower/fully_connected/biases/Adam_1"
  input: "save/RestoreV2:5"
  device: "/device:CPU:0"
  attr {
    key: "T"
    value {
      type: DT_FLOAT
    }
  }
  attr {
    key: "_class"
    value {
      list {
        s: "loc:@tower/fully_connected/biases"
      }
    }
  }
  attr {
    key: "_output_shapes"
    value {
      list {
        shape {
          dim {
            size: 3862
          }
        }
      }
    }
  }
  attr {
    key: "use_locking"
    value {
      b: true
    }
  }
  attr {
    key: "validate_shape"
    value {
      b: true
    }
  }
}
node {
  name: "save/Assign_6"
  op: "Assign"
  input: "tower/fully_connected/weights"
  input: "save/RestoreV2:6"
  device: "/device:CPU:0"
  attr {
    key: "T"
    value {
      type: DT_FLOAT
    }
  }
  attr {
    key: "_class"
    value {
      list {
        s: "loc:@tower/fully_connected/weights"
      }
    }
  }
  attr {
    key: "_output_shapes"
    value {
      list {
        shape {
          dim {
            size: 1024
          }
          dim {
            size: 3862
          }
        }
      }
    }
  }
  attr {
    key: "use_locking"
    value {
      b: true
    }
  }
  attr {
    key: "validate_shape"
    value {
      b: true
    }
  }
}
node {
  name: "save/Assign_7"
  op: "Assign"
  input: "tower/fully_connected/weights/Adam"
  input: "save/RestoreV2:7"
  device: "/device:CPU:0"
  attr {
    key: "T"
    value {
      type: DT_FLOAT
    }
  }
  attr {
    key: "_class"
    value {
      list {
        s: "loc:@tower/fully_connected/weights"
      }
    }
  }
  attr {
    key: "_output_shapes"
    value {
      list {
        shape {
          dim {
            size: 1024
          }
          dim {
            size: 3862
          }
        }
      }
    }
  }
  attr {
    key: "use_locking"
    value {
      b: true
    }
  }
  attr {
    key: "validate_shape"
    value {
      b: true
    }
  }
}
node {
  name: "save/Assign_8"
  op: "Assign"
  input: "tower/fully_connected/weights/Adam_1"
  input: "save/RestoreV2:8"
  device: "/device:CPU:0"
  attr {
    key: "T"
    value {
      type: DT_FLOAT
    }
  }
  attr {
    key: "_class"
    value {
      list {
        s: "loc:@tower/fully_connected/weights"
      }
    }
  }
  attr {
    key: "_output_shapes"
    value {
      list {
        shape {
          dim {
            size: 1024
          }
          dim {
            size: 3862
          }
        }
      }
    }
  }
  attr {
    key: "use_locking"
    value {
      b: true
    }
  }
  attr {
    key: "validate_shape"
    value {
      b: true
    }
  }
}
node {
  name: "save/restore_all/NoOp"
  op: "NoOp"
  input: "^save/Assign_2"
}
node {
  name: "save/restore_all/NoOp_1"
  op: "NoOp"
  input: "^save/Assign"
  input: "^save/Assign_1"
  input: "^save/Assign_3"
  input: "^save/Assign_4"
  input: "^save/Assign_5"
  input: "^save/Assign_6"
  input: "^save/Assign_7"
  input: "^save/Assign_8"
  device: "/device:CPU:0"
}
node {
  name: "save/restore_all"
  op: "NoOp"
  input: "^save/restore_all/NoOp"
  input: "^save/restore_all/NoOp_1"
}
node {
  name: "init/NoOp"
  op: "NoOp"
  input: "^global_step/Assign"
}
node {
  name: "init/NoOp_1"
  op: "NoOp"
  input: "^beta1_power/Assign"
  input: "^beta2_power/Assign"
  input: "^tower/fully_connected/biases/Adam/Assign"
  input: "^tower/fully_connected/biases/Adam_1/Assign"
  input: "^tower/fully_connected/biases/Assign"
  input: "^tower/fully_connected/weights/Adam/Assign"
  input: "^tower/fully_connected/weights/Adam_1/Assign"
  input: "^tower/fully_connected/weights/Assign"
  device: "/device:CPU:0"
}
node {
  name: "init"
  op: "NoOp"
  input: "^init/NoOp"
  input: "^init/NoOp_1"
}
node {
  name: "report_uninitialized_variables/IsVariableInitialized"
  op: "IsVariableInitialized"
  input: "global_step"
  attr {
    key: "_class"
    value {
      list {
        s: "loc:@global_step"
      }
    }
  }
  attr {
    key: "_output_shapes"
    value {
      list {
        shape {
        }
      }
    }
  }
  attr {
    key: "dtype"
    value {
      type: DT_INT32
    }
  }
}
node {
  name: "report_uninitialized_variables/IsVariableInitialized_1"
  op: "IsVariableInitialized"
  input: "tower/fully_connected/weights"
  device: "/device:CPU:0"
  attr {
    key: "_class"
    value {
      list {
        s: "loc:@tower/fully_connected/weights"
      }
    }
  }
  attr {
    key: "_output_shapes"
    value {
      list {
        shape {
        }
      }
    }
  }
  attr {
    key: "dtype"
    value {
      type: DT_FLOAT
    }
  }
}
node {
  name: "report_uninitialized_variables/IsVariableInitialized_2"
  op: "IsVariableInitialized"
  input: "tower/fully_connected/biases"
  device: "/device:CPU:0"
  attr {
    key: "_class"
    value {
      list {
        s: "loc:@tower/fully_connected/biases"
      }
    }
  }
  attr {
    key: "_output_shapes"
    value {
      list {
        shape {
        }
      }
    }
  }
  attr {
    key: "dtype"
    value {
      type: DT_FLOAT
    }
  }
}
node {
  name: "report_uninitialized_variables/IsVariableInitialized_3"
  op: "IsVariableInitialized"
  input: "beta1_power"
  device: "/device:CPU:0"
  attr {
    key: "_class"
    value {
      list {
        s: "loc:@tower/fully_connected/biases"
      }
    }
  }
  attr {
    key: "_output_shapes"
    value {
      list {
        shape {
        }
      }
    }
  }
  attr {
    key: "dtype"
    value {
      type: DT_FLOAT
    }
  }
}
node {
  name: "report_uninitialized_variables/IsVariableInitialized_4"
  op: "IsVariableInitialized"
  input: "beta2_power"
  device: "/device:CPU:0"
  attr {
    key: "_class"
    value {
      list {
        s: "loc:@tower/fully_connected/biases"
      }
    }
  }
  attr {
    key: "_output_shapes"
    value {
      list {
        shape {
        }
      }
    }
  }
  attr {
    key: "dtype"
    value {
      type: DT_FLOAT
    }
  }
}
node {
  name: "report_uninitialized_variables/IsVariableInitialized_5"
  op: "IsVariableInitialized"
  input: "tower/fully_connected/weights/Adam"
  device: "/device:CPU:0"
  attr {
    key: "_class"
    value {
      list {
        s: "loc:@tower/fully_connected/weights"
      }
    }
  }
  attr {
    key: "_output_shapes"
    value {
      list {
        shape {
        }
      }
    }
  }
  attr {
    key: "dtype"
    value {
      type: DT_FLOAT
    }
  }
}
node {
  name: "report_uninitialized_variables/IsVariableInitialized_6"
  op: "IsVariableInitialized"
  input: "tower/fully_connected/weights/Adam_1"
  device: "/device:CPU:0"
  attr {
    key: "_class"
    value {
      list {
        s: "loc:@tower/fully_connected/weights"
      }
    }
  }
  attr {
    key: "_output_shapes"
    value {
      list {
        shape {
        }
      }
    }
  }
  attr {
    key: "dtype"
    value {
      type: DT_FLOAT
    }
  }
}
node {
  name: "report_uninitialized_variables/IsVariableInitialized_7"
  op: "IsVariableInitialized"
  input: "tower/fully_connected/biases/Adam"
  device: "/device:CPU:0"
  attr {
    key: "_class"
    value {
      list {
        s: "loc:@tower/fully_connected/biases"
      }
    }
  }
  attr {
    key: "_output_shapes"
    value {
      list {
        shape {
        }
      }
    }
  }
  attr {
    key: "dtype"
    value {
      type: DT_FLOAT
    }
  }
}
node {
  name: "report_uninitialized_variables/IsVariableInitialized_8"
  op: "IsVariableInitialized"
  input: "tower/fully_connected/biases/Adam_1"
  device: "/device:CPU:0"
  attr {
    key: "_class"
    value {
      list {
        s: "loc:@tower/fully_connected/biases"
      }
    }
  }
  attr {
    key: "_output_shapes"
    value {
      list {
        shape {
        }
      }
    }
  }
  attr {
    key: "dtype"
    value {
      type: DT_FLOAT
    }
  }
}
node {
  name: "report_uninitialized_variables/IsVariableInitialized_9"
  op: "IsVariableInitialized"
  input: "train_input/input_producer/limit_epochs/epochs"
  attr {
    key: "_class"
    value {
      list {
        s: "loc:@train_input/input_producer/limit_epochs/epochs"
      }
    }
  }
  attr {
    key: "_output_shapes"
    value {
      list {
        shape {
        }
      }
    }
  }
  attr {
    key: "dtype"
    value {
      type: DT_INT64
    }
  }
}
node {
  name: "report_uninitialized_variables/stack"
  op: "Pack"
  input: "report_uninitialized_variables/IsVariableInitialized"
  input: "report_uninitialized_variables/IsVariableInitialized_1"
  input: "report_uninitialized_variables/IsVariableInitialized_2"
  input: "report_uninitialized_variables/IsVariableInitialized_3"
  input: "report_uninitialized_variables/IsVariableInitialized_4"
  input: "report_uninitialized_variables/IsVariableInitialized_5"
  input: "report_uninitialized_variables/IsVariableInitialized_6"
  input: "report_uninitialized_variables/IsVariableInitialized_7"
  input: "report_uninitialized_variables/IsVariableInitialized_8"
  input: "report_uninitialized_variables/IsVariableInitialized_9"
  device: "/device:CPU:0"
  attr {
    key: "N"
    value {
      i: 10
    }
  }
  attr {
    key: "T"
    value {
      type: DT_BOOL
    }
  }
  attr {
    key: "_output_shapes"
    value {
      list {
        shape {
          dim {
            size: 10
          }
        }
      }
    }
  }
  attr {
    key: "axis"
    value {
      i: 0
    }
  }
}
node {
  name: "report_uninitialized_variables/LogicalNot"
  op: "LogicalNot"
  input: "report_uninitialized_variables/stack"
  device: "/device:CPU:0"
  attr {
    key: "_output_shapes"
    value {
      list {
        shape {
          dim {
            size: 10
          }
        }
      }
    }
  }
}
node {
  name: "report_uninitialized_variables/Const"
  op: "Const"
  device: "/device:CPU:0"
  attr {
    key: "_output_shapes"
    value {
      list {
        shape {
          dim {
            size: 10
          }
        }
      }
    }
  }
  attr {
    key: "dtype"
    value {
      type: DT_STRING
    }
  }
  attr {
    key: "value"
    value {
      tensor {
        dtype: DT_STRING
        tensor_shape {
          dim {
            size: 10
          }
        }
        string_val: "global_step"
        string_val: "tower/fully_connected/weights"
        string_val: "tower/fully_connected/biases"
        string_val: "beta1_power"
        string_val: "beta2_power"
        string_val: "tower/fully_connected/weights/Adam"
        string_val: "tower/fully_connected/weights/Adam_1"
        string_val: "tower/fully_connected/biases/Adam"
        string_val: "tower/fully_connected/biases/Adam_1"
        string_val: "train_input/input_producer/limit_epochs/epochs"
      }
    }
  }
}
node {
  name: "report_uninitialized_variables/boolean_mask/Shape"
  op: "Const"
  device: "/device:CPU:0"
  attr {
    key: "_output_shapes"
    value {
      list {
        shape {
          dim {
            size: 1
          }
        }
      }
    }
  }
  attr {
    key: "dtype"
    value {
      type: DT_INT32
    }
  }
  attr {
    key: "value"
    value {
      tensor {
        dtype: DT_INT32
        tensor_shape {
          dim {
            size: 1
          }
        }
        int_val: 10
      }
    }
  }
}
node {
  name: "report_uninitialized_variables/boolean_mask/strided_slice/stack"
  op: "Const"
  device: "/device:CPU:0"
  attr {
    key: "_output_shapes"
    value {
      list {
        shape {
          dim {
            size: 1
          }
        }
      }
    }
  }
  attr {
    key: "dtype"
    value {
      type: DT_INT32
    }
  }
  attr {
    key: "value"
    value {
      tensor {
        dtype: DT_INT32
        tensor_shape {
          dim {
            size: 1
          }
        }
        int_val: 0
      }
    }
  }
}
node {
  name: "report_uninitialized_variables/boolean_mask/strided_slice/stack_1"
  op: "Const"
  device: "/device:CPU:0"
  attr {
    key: "_output_shapes"
    value {
      list {
        shape {
          dim {
            size: 1
          }
        }
      }
    }
  }
  attr {
    key: "dtype"
    value {
      type: DT_INT32
    }
  }
  attr {
    key: "value"
    value {
      tensor {
        dtype: DT_INT32
        tensor_shape {
          dim {
            size: 1
          }
        }
        int_val: 1
      }
    }
  }
}
node {
  name: "report_uninitialized_variables/boolean_mask/strided_slice/stack_2"
  op: "Const"
  device: "/device:CPU:0"
  attr {
    key: "_output_shapes"
    value {
      list {
        shape {
          dim {
            size: 1
          }
        }
      }
    }
  }
  attr {
    key: "dtype"
    value {
      type: DT_INT32
    }
  }
  attr {
    key: "value"
    value {
      tensor {
        dtype: DT_INT32
        tensor_shape {
          dim {
            size: 1
          }
        }
        int_val: 1
      }
    }
  }
}
node {
  name: "report_uninitialized_variables/boolean_mask/strided_slice"
  op: "StridedSlice"
  input: "report_uninitialized_variables/boolean_mask/Shape"
  input: "report_uninitialized_variables/boolean_mask/strided_slice/stack"
  input: "report_uninitialized_variables/boolean_mask/strided_slice/stack_1"
  input: "report_uninitialized_variables/boolean_mask/strided_slice/stack_2"
  device: "/device:CPU:0"
  attr {
    key: "Index"
    value {
      type: DT_INT32
    }
  }
  attr {
    key: "T"
    value {
      type: DT_INT32
    }
  }
  attr {
    key: "_output_shapes"
    value {
      list {
        shape {
          dim {
            size: 1
          }
        }
      }
    }
  }
  attr {
    key: "begin_mask"
    value {
      i: 0
    }
  }
  attr {
    key: "ellipsis_mask"
    value {
      i: 0
    }
  }
  attr {
    key: "end_mask"
    value {
      i: 0
    }
  }
  attr {
    key: "new_axis_mask"
    value {
      i: 0
    }
  }
  attr {
    key: "shrink_axis_mask"
    value {
      i: 0
    }
  }
}
node {
  name: "report_uninitialized_variables/boolean_mask/Prod/reduction_indices"
  op: "Const"
  device: "/device:CPU:0"
  attr {
    key: "_output_shapes"
    value {
      list {
        shape {
          dim {
            size: 1
          }
        }
      }
    }
  }
  attr {
    key: "dtype"
    value {
      type: DT_INT32
    }
  }
  attr {
    key: "value"
    value {
      tensor {
        dtype: DT_INT32
        tensor_shape {
          dim {
            size: 1
          }
        }
        int_val: 0
      }
    }
  }
}
node {
  name: "report_uninitialized_variables/boolean_mask/Prod"
  op: "Prod"
  input: "report_uninitialized_variables/boolean_mask/strided_slice"
  input: "report_uninitialized_variables/boolean_mask/Prod/reduction_indices"
  device: "/device:CPU:0"
  attr {
    key: "T"
    value {
      type: DT_INT32
    }
  }
  attr {
    key: "Tidx"
    value {
      type: DT_INT32
    }
  }
  attr {
    key: "_output_shapes"
    value {
      list {
        shape {
        }
      }
    }
  }
  attr {
    key: "keep_dims"
    value {
      b: false
    }
  }
}
node {
  name: "report_uninitialized_variables/boolean_mask/Shape_1"
  op: "Const"
  device: "/device:CPU:0"
  attr {
    key: "_output_shapes"
    value {
      list {
        shape {
          dim {
            size: 1
          }
        }
      }
    }
  }
  attr {
    key: "dtype"
    value {
      type: DT_INT32
    }
  }
  attr {
    key: "value"
    value {
      tensor {
        dtype: DT_INT32
        tensor_shape {
          dim {
            size: 1
          }
        }
        int_val: 10
      }
    }
  }
}
node {
  name: "report_uninitialized_variables/boolean_mask/strided_slice_1/stack"
  op: "Const"
  device: "/device:CPU:0"
  attr {
    key: "_output_shapes"
    value {
      list {
        shape {
          dim {
            size: 1
          }
        }
      }
    }
  }
  attr {
    key: "dtype"
    value {
      type: DT_INT32
    }
  }
  attr {
    key: "value"
    value {
      tensor {
        dtype: DT_INT32
        tensor_shape {
          dim {
            size: 1
          }
        }
        int_val: 0
      }
    }
  }
}
node {
  name: "report_uninitialized_variables/boolean_mask/strided_slice_1/stack_1"
  op: "Const"
  device: "/device:CPU:0"
  attr {
    key: "_output_shapes"
    value {
      list {
        shape {
          dim {
            size: 1
          }
        }
      }
    }
  }
  attr {
    key: "dtype"
    value {
      type: DT_INT32
    }
  }
  attr {
    key: "value"
    value {
      tensor {
        dtype: DT_INT32
        tensor_shape {
          dim {
            size: 1
          }
        }
        int_val: 0
      }
    }
  }
}
node {
  name: "report_uninitialized_variables/boolean_mask/strided_slice_1/stack_2"
  op: "Const"
  device: "/device:CPU:0"
  attr {
    key: "_output_shapes"
    value {
      list {
        shape {
          dim {
            size: 1
          }
        }
      }
    }
  }
  attr {
    key: "dtype"
    value {
      type: DT_INT32
    }
  }
  attr {
    key: "value"
    value {
      tensor {
        dtype: DT_INT32
        tensor_shape {
          dim {
            size: 1
          }
        }
        int_val: 1
      }
    }
  }
}
node {
  name: "report_uninitialized_variables/boolean_mask/strided_slice_1"
  op: "StridedSlice"
  input: "report_uninitialized_variables/boolean_mask/Shape_1"
  input: "report_uninitialized_variables/boolean_mask/strided_slice_1/stack"
  input: "report_uninitialized_variables/boolean_mask/strided_slice_1/stack_1"
  input: "report_uninitialized_variables/boolean_mask/strided_slice_1/stack_2"
  device: "/device:CPU:0"
  attr {
    key: "Index"
    value {
      type: DT_INT32
    }
  }
  attr {
    key: "T"
    value {
      type: DT_INT32
    }
  }
  attr {
    key: "_output_shapes"
    value {
      list {
        shape {
          dim {
          }
        }
      }
    }
  }
  attr {
    key: "begin_mask"
    value {
      i: 1
    }
  }
  attr {
    key: "ellipsis_mask"
    value {
      i: 0
    }
  }
  attr {
    key: "end_mask"
    value {
      i: 0
    }
  }
  attr {
    key: "new_axis_mask"
    value {
      i: 0
    }
  }
  attr {
    key: "shrink_axis_mask"
    value {
      i: 0
    }
  }
}
node {
  name: "report_uninitialized_variables/boolean_mask/Shape_2"
  op: "Const"
  device: "/device:CPU:0"
  attr {
    key: "_output_shapes"
    value {
      list {
        shape {
          dim {
            size: 1
          }
        }
      }
    }
  }
  attr {
    key: "dtype"
    value {
      type: DT_INT32
    }
  }
  attr {
    key: "value"
    value {
      tensor {
        dtype: DT_INT32
        tensor_shape {
          dim {
            size: 1
          }
        }
        int_val: 10
      }
    }
  }
}
node {
  name: "report_uninitialized_variables/boolean_mask/strided_slice_2/stack"
  op: "Const"
  device: "/device:CPU:0"
  attr {
    key: "_output_shapes"
    value {
      list {
        shape {
          dim {
            size: 1
          }
        }
      }
    }
  }
  attr {
    key: "dtype"
    value {
      type: DT_INT32
    }
  }
  attr {
    key: "value"
    value {
      tensor {
        dtype: DT_INT32
        tensor_shape {
          dim {
            size: 1
          }
        }
        int_val: 1
      }
    }
  }
}
node {
  name: "report_uninitialized_variables/boolean_mask/strided_slice_2/stack_1"
  op: "Const"
  device: "/device:CPU:0"
  attr {
    key: "_output_shapes"
    value {
      list {
        shape {
          dim {
            size: 1
          }
        }
      }
    }
  }
  attr {
    key: "dtype"
    value {
      type: DT_INT32
    }
  }
  attr {
    key: "value"
    value {
      tensor {
        dtype: DT_INT32
        tensor_shape {
          dim {
            size: 1
          }
        }
        int_val: 0
      }
    }
  }
}
node {
  name: "report_uninitialized_variables/boolean_mask/strided_slice_2/stack_2"
  op: "Const"
  device: "/device:CPU:0"
  attr {
    key: "_output_shapes"
    value {
      list {
        shape {
          dim {
            size: 1
          }
        }
      }
    }
  }
  attr {
    key: "dtype"
    value {
      type: DT_INT32
    }
  }
  attr {
    key: "value"
    value {
      tensor {
        dtype: DT_INT32
        tensor_shape {
          dim {
            size: 1
          }
        }
        int_val: 1
      }
    }
  }
}
node {
  name: "report_uninitialized_variables/boolean_mask/strided_slice_2"
  op: "StridedSlice"
  input: "report_uninitialized_variables/boolean_mask/Shape_2"
  input: "report_uninitialized_variables/boolean_mask/strided_slice_2/stack"
  input: "report_uninitialized_variables/boolean_mask/strided_slice_2/stack_1"
  input: "report_uninitialized_variables/boolean_mask/strided_slice_2/stack_2"
  device: "/device:CPU:0"
  attr {
    key: "Index"
    value {
      type: DT_INT32
    }
  }
  attr {
    key: "T"
    value {
      type: DT_INT32
    }
  }
  attr {
    key: "_output_shapes"
    value {
      list {
        shape {
          dim {
          }
        }
      }
    }
  }
  attr {
    key: "begin_mask"
    value {
      i: 0
    }
  }
  attr {
    key: "ellipsis_mask"
    value {
      i: 0
    }
  }
  attr {
    key: "end_mask"
    value {
      i: 1
    }
  }
  attr {
    key: "new_axis_mask"
    value {
      i: 0
    }
  }
  attr {
    key: "shrink_axis_mask"
    value {
      i: 0
    }
  }
}
node {
  name: "report_uninitialized_variables/boolean_mask/concat/values_1"
  op: "Pack"
  input: "report_uninitialized_variables/boolean_mask/Prod"
  device: "/device:CPU:0"
  attr {
    key: "N"
    value {
      i: 1
    }
  }
  attr {
    key: "T"
    value {
      type: DT_INT32
    }
  }
  attr {
    key: "_output_shapes"
    value {
      list {
        shape {
          dim {
            size: 1
          }
        }
      }
    }
  }
  attr {
    key: "axis"
    value {
      i: 0
    }
  }
}
node {
  name: "report_uninitialized_variables/boolean_mask/concat/axis"
  op: "Const"
  device: "/device:CPU:0"
  attr {
    key: "_output_shapes"
    value {
      list {
        shape {
        }
      }
    }
  }
  attr {
    key: "dtype"
    value {
      type: DT_INT32
    }
  }
  attr {
    key: "value"
    value {
      tensor {
        dtype: DT_INT32
        tensor_shape {
        }
        int_val: 0
      }
    }
  }
}
node {
  name: "report_uninitialized_variables/boolean_mask/concat"
  op: "ConcatV2"
  input: "report_uninitialized_variables/boolean_mask/strided_slice_1"
  input: "report_uninitialized_variables/boolean_mask/concat/values_1"
  input: "report_uninitialized_variables/boolean_mask/strided_slice_2"
  input: "report_uninitialized_variables/boolean_mask/concat/axis"
  device: "/device:CPU:0"
  attr {
    key: "N"
    value {
      i: 3
    }
  }
  attr {
    key: "T"
    value {
      type: DT_INT32
    }
  }
  attr {
    key: "Tidx"
    value {
      type: DT_INT32
    }
  }
  attr {
    key: "_output_shapes"
    value {
      list {
        shape {
          dim {
            size: 1
          }
        }
      }
    }
  }
}
node {
  name: "report_uninitialized_variables/boolean_mask/Reshape"
  op: "Reshape"
  input: "report_uninitialized_variables/Const"
  input: "report_uninitialized_variables/boolean_mask/concat"
  device: "/device:CPU:0"
  attr {
    key: "T"
    value {
      type: DT_STRING
    }
  }
  attr {
    key: "Tshape"
    value {
      type: DT_INT32
    }
  }
  attr {
    key: "_output_shapes"
    value {
      list {
        shape {
          dim {
            size: 10
          }
        }
      }
    }
  }
}
node {
  name: "report_uninitialized_variables/boolean_mask/Reshape_1/shape"
  op: "Const"
  device: "/device:CPU:0"
  attr {
    key: "_output_shapes"
    value {
      list {
        shape {
          dim {
            size: 1
          }
        }
      }
    }
  }
  attr {
    key: "dtype"
    value {
      type: DT_INT32
    }
  }
  attr {
    key: "value"
    value {
      tensor {
        dtype: DT_INT32
        tensor_shape {
          dim {
            size: 1
          }
        }
        int_val: -1
      }
    }
  }
}
node {
  name: "report_uninitialized_variables/boolean_mask/Reshape_1"
  op: "Reshape"
  input: "report_uninitialized_variables/LogicalNot"
  input: "report_uninitialized_variables/boolean_mask/Reshape_1/shape"
  device: "/device:CPU:0"
  attr {
    key: "T"
    value {
      type: DT_BOOL
    }
  }
  attr {
    key: "Tshape"
    value {
      type: DT_INT32
    }
  }
  attr {
    key: "_output_shapes"
    value {
      list {
        shape {
          dim {
            size: 10
          }
        }
      }
    }
  }
}
node {
  name: "report_uninitialized_variables/boolean_mask/Where"
  op: "Where"
  input: "report_uninitialized_variables/boolean_mask/Reshape_1"
  device: "/device:CPU:0"
  attr {
    key: "T"
    value {
      type: DT_BOOL
    }
  }
  attr {
    key: "_output_shapes"
    value {
      list {
        shape {
          dim {
            size: -1
          }
          dim {
            size: 1
          }
        }
      }
    }
  }
}
node {
  name: "report_uninitialized_variables/boolean_mask/Squeeze"
  op: "Squeeze"
  input: "report_uninitialized_variables/boolean_mask/Where"
  device: "/device:CPU:0"
  attr {
    key: "T"
    value {
      type: DT_INT64
    }
  }
  attr {
    key: "_output_shapes"
    value {
      list {
        shape {
          dim {
            size: -1
          }
        }
      }
    }
  }
  attr {
    key: "squeeze_dims"
    value {
      list {
        i: 1
      }
    }
  }
}
node {
  name: "report_uninitialized_variables/boolean_mask/GatherV2/axis"
  op: "Const"
  device: "/device:CPU:0"
  attr {
    key: "_output_shapes"
    value {
      list {
        shape {
        }
      }
    }
  }
  attr {
    key: "dtype"
    value {
      type: DT_INT32
    }
  }
  attr {
    key: "value"
    value {
      tensor {
        dtype: DT_INT32
        tensor_shape {
        }
        int_val: 0
      }
    }
  }
}
node {
  name: "report_uninitialized_variables/boolean_mask/GatherV2"
  op: "GatherV2"
  input: "report_uninitialized_variables/boolean_mask/Reshape"
  input: "report_uninitialized_variables/boolean_mask/Squeeze"
  input: "report_uninitialized_variables/boolean_mask/GatherV2/axis"
  device: "/device:CPU:0"
  attr {
    key: "Taxis"
    value {
      type: DT_INT32
    }
  }
  attr {
    key: "Tindices"
    value {
      type: DT_INT64
    }
  }
  attr {
    key: "Tparams"
    value {
      type: DT_STRING
    }
  }
  attr {
    key: "_output_shapes"
    value {
      list {
        shape {
          dim {
            size: -1
          }
        }
      }
    }
  }
}
node {
  name: "init_1"
  op: "NoOp"
  input: "^train_input/input_producer/limit_epochs/epochs/Assign"
}
node {
  name: "init_all_tables"
  op: "NoOp"
}
node {
  name: "group_deps"
  op: "NoOp"
  input: "^init_1"
  input: "^init_all_tables"
}
node {
  name: "Merge/MergeSummary"
  op: "MergeSummary"
  input: "learning_rate"
  input: "train_input/input_producer/fraction_of_32_full"
  input: "train_input/shuffle_batch_join/fraction_over_256_of_1024_full"
  input: "model/input_raw"
  input: "tower/tower/fully_connected/weights"
  input: "tower/tower/fully_connected/biases"
  input: "label_loss"
  input: "reg_loss"
  attr {
    key: "N"
    value {
      i: 8
    }
  }
  attr {
    key: "_output_shapes"
    value {
      list {
        shape {
        }
      }
    }
  }
}
versions {
  producer: 26
}
